{"format": "graph-model", "generatedBy": "2.3.1", "convertedBy": "TensorFlow.js Converter v2.7.0", "userDefinedMetadata": {"signature": {"outputs": {"model_output": {"name": "model_output"}}}, "Image.BitmapPixelFormat": "Rgb8"}, "modelTopology": {"node": [{"name": "ConstantFolding/block6_1/se/sigmoid_recip", "op": "Const", "attr": {"value": {"tensor": {"dtype": "DT_FLOAT", "tensorShape": {}}}, "dtype": {"type": "DT_FLOAT"}}}, {"name": "block6_1/se/pool/reduction_indices", "op": "Const", "attr": {"value": {"tensor": {"dtype": "DT_INT32", "tensorShape": {"dim": [{"size": "2"}]}}}, "dtype": {"type": "DT_INT32"}}}, {"name": "block6_1/se/conv0/weights", "op": "Const", "attr": {"value": {"tensor": {"dtype": "DT_FLOAT", "tensorShape": {"dim": [{"size": "1"}, {"size": "1"}, {"size": "1392"}, {"size": "348"}]}}}, "dtype": {"type": "DT_FLOAT"}}}, {"name": "block6_1/se/conv0/biases", "op": "Const", "attr": {"value": {"tensor": {"dtype": "DT_FLOAT", "tensorShape": {"dim": [{"size": "348"}]}}}, "dtype": {"type": "DT_FLOAT"}}}, {"name": "block6_1/se/conv1/weights", "op": "Const", "attr": {"value": {"tensor": {"dtype": "DT_FLOAT", "tensorShape": {"dim": [{"size": "1"}, {"size": "1"}, {"size": "348"}, {"size": "1392"}]}}}, "dtype": {"type": "DT_FLOAT"}}}, {"name": "block6_1/se/conv1/biases", "op": "Const", "attr": {"value": {"tensor": {"dtype": "DT_FLOAT", "tensorShape": {"dim": [{"size": "1392"}]}}}, "dtype": {"type": "DT_FLOAT"}}}, {"name": "block6_1/conv0/weights", "op": "Const", "attr": {"value": {"tensor": {"dtype": "DT_FLOAT", "tensorShape": {"dim": [{"size": "1"}, {"size": "1"}, {"size": "384"}, {"size": "1392"}]}}}, "dtype": {"type": "DT_FLOAT"}}}, {"name": "block6_1/conv0/biases", "op": "Const", "attr": {"dtype": {"type": "DT_FLOAT"}, "value": {"tensor": {"dtype": "DT_FLOAT", "tensorShape": {"dim": [{"size": "1392"}]}}}}}, {"name": "block6_1/conv1/weights", "op": "Const", "attr": {"dtype": {"type": "DT_FLOAT"}, "value": {"tensor": {"dtype": "DT_FLOAT", "tensorShape": {"dim": [{"size": "3"}, {"size": "3"}, {"size": "1392"}, {"size": "1"}]}}}}}, {"name": "block6_1/conv1/biases", "op": "Const", "attr": {"dtype": {"type": "DT_FLOAT"}, "value": {"tensor": {"dtype": "DT_FLOAT", "tensorShape": {"dim": [{"size": "1392"}]}}}}}, {"name": "block6_1/conv2/weights", "op": "Const", "attr": {"value": {"tensor": {"dtype": "DT_FLOAT", "tensorShape": {"dim": [{"size": "1"}, {"size": "1"}, {"size": "1392"}, {"size": "384"}]}}}, "dtype": {"type": "DT_FLOAT"}}}, {"name": "block6_1/conv2/biases", "op": "Const", "attr": {"value": {"tensor": {"dtype": "DT_FLOAT", "tensorShape": {"dim": [{"size": "384"}]}}}, "dtype": {"type": "DT_FLOAT"}}}, {"name": "ConstantFolding/block6_0/se/sigmoid_recip", "op": "Const", "attr": {"dtype": {"type": "DT_FLOAT"}, "value": {"tensor": {"dtype": "DT_FLOAT", "tensorShape": {}}}}}, {"name": "block6_0/se/pool/reduction_indices", "op": "Const", "attr": {"dtype": {"type": "DT_INT32"}, "value": {"tensor": {"dtype": "DT_INT32", "tensorShape": {"dim": [{"size": "2"}]}}}}}, {"name": "block6_0/se/conv0/weights", "op": "Const", "attr": {"dtype": {"type": "DT_FLOAT"}, "value": {"tensor": {"dtype": "DT_FLOAT", "tensorShape": {"dim": [{"size": "1"}, {"size": "1"}, {"size": "1392"}, {"size": "348"}]}}}}}, {"name": "block6_0/se/conv0/biases", "op": "Const", "attr": {"dtype": {"type": "DT_FLOAT"}, "value": {"tensor": {"dtype": "DT_FLOAT", "tensorShape": {"dim": [{"size": "348"}]}}}}}, {"name": "block6_0/se/conv1/weights", "op": "Const", "attr": {"dtype": {"type": "DT_FLOAT"}, "value": {"tensor": {"dtype": "DT_FLOAT", "tensorShape": {"dim": [{"size": "1"}, {"size": "1"}, {"size": "348"}, {"size": "1392"}]}}}}}, {"name": "block6_0/se/conv1/biases", "op": "Const", "attr": {"dtype": {"type": "DT_FLOAT"}, "value": {"tensor": {"dtype": "DT_FLOAT", "tensorShape": {"dim": [{"size": "1392"}]}}}}}, {"name": "ConstantFolding/block5_5/se/sigmoid_recip", "op": "Const", "attr": {"value": {"tensor": {"dtype": "DT_FLOAT", "tensorShape": {}}}, "dtype": {"type": "DT_FLOAT"}}}, {"name": "block5_5/se/pool/reduction_indices", "op": "Const", "attr": {"value": {"tensor": {"dtype": "DT_INT32", "tensorShape": {"dim": [{"size": "2"}]}}}, "dtype": {"type": "DT_INT32"}}}, {"name": "block5_5/se/conv0/weights", "op": "Const", "attr": {"dtype": {"type": "DT_FLOAT"}, "value": {"tensor": {"dtype": "DT_FLOAT", "tensorShape": {"dim": [{"size": "1"}, {"size": "1"}, {"size": "816"}, {"size": "204"}]}}}}}, {"name": "block5_5/se/conv0/biases", "op": "Const", "attr": {"dtype": {"type": "DT_FLOAT"}, "value": {"tensor": {"dtype": "DT_FLOAT", "tensorShape": {"dim": [{"size": "204"}]}}}}}, {"name": "block5_5/se/conv1/weights", "op": "Const", "attr": {"value": {"tensor": {"dtype": "DT_FLOAT", "tensorShape": {"dim": [{"size": "1"}, {"size": "1"}, {"size": "204"}, {"size": "816"}]}}}, "dtype": {"type": "DT_FLOAT"}}}, {"name": "block5_5/se/conv1/biases", "op": "Const", "attr": {"value": {"tensor": {"dtype": "DT_FLOAT", "tensorShape": {"dim": [{"size": "816"}]}}}, "dtype": {"type": "DT_FLOAT"}}}, {"name": "block5_5/conv0/weights", "op": "Const", "attr": {"dtype": {"type": "DT_FLOAT"}, "value": {"tensor": {"dtype": "DT_FLOAT", "tensorShape": {"dim": [{"size": "1"}, {"size": "1"}, {"size": "232"}, {"size": "816"}]}}}}}, {"name": "block5_5/conv0/biases", "op": "Const", "attr": {"dtype": {"type": "DT_FLOAT"}, "value": {"tensor": {"dtype": "DT_FLOAT", "tensorShape": {"dim": [{"size": "816"}]}}}}}, {"name": "block5_5/conv1/weights", "op": "Const", "attr": {"value": {"tensor": {"dtype": "DT_FLOAT", "tensorShape": {"dim": [{"size": "5"}, {"size": "5"}, {"size": "816"}, {"size": "1"}]}}}, "dtype": {"type": "DT_FLOAT"}}}, {"name": "block5_5/conv1/biases", "op": "Const", "attr": {"dtype": {"type": "DT_FLOAT"}, "value": {"tensor": {"dtype": "DT_FLOAT", "tensorShape": {"dim": [{"size": "816"}]}}}}}, {"name": "block5_5/conv2/weights", "op": "Const", "attr": {"value": {"tensor": {"dtype": "DT_FLOAT", "tensorShape": {"dim": [{"size": "1"}, {"size": "1"}, {"size": "816"}, {"size": "232"}]}}}, "dtype": {"type": "DT_FLOAT"}}}, {"name": "block5_5/conv2/biases", "op": "Const", "attr": {"value": {"tensor": {"dtype": "DT_FLOAT", "tensorShape": {"dim": [{"size": "232"}]}}}, "dtype": {"type": "DT_FLOAT"}}}, {"name": "ConstantFolding/block5_4/se/sigmoid_recip", "op": "Const", "attr": {"dtype": {"type": "DT_FLOAT"}, "value": {"tensor": {"dtype": "DT_FLOAT", "tensorShape": {}}}}}, {"name": "block5_4/se/pool/reduction_indices", "op": "Const", "attr": {"value": {"tensor": {"dtype": "DT_INT32", "tensorShape": {"dim": [{"size": "2"}]}}}, "dtype": {"type": "DT_INT32"}}}, {"name": "block5_4/se/conv0/weights", "op": "Const", "attr": {"dtype": {"type": "DT_FLOAT"}, "value": {"tensor": {"dtype": "DT_FLOAT", "tensorShape": {"dim": [{"size": "1"}, {"size": "1"}, {"size": "816"}, {"size": "204"}]}}}}}, {"name": "block5_4/se/conv0/biases", "op": "Const", "attr": {"value": {"tensor": {"dtype": "DT_FLOAT", "tensorShape": {"dim": [{"size": "204"}]}}}, "dtype": {"type": "DT_FLOAT"}}}, {"name": "block5_4/se/conv1/weights", "op": "Const", "attr": {"value": {"tensor": {"dtype": "DT_FLOAT", "tensorShape": {"dim": [{"size": "1"}, {"size": "1"}, {"size": "204"}, {"size": "816"}]}}}, "dtype": {"type": "DT_FLOAT"}}}, {"name": "block5_4/se/conv1/biases", "op": "Const", "attr": {"value": {"tensor": {"dtype": "DT_FLOAT", "tensorShape": {"dim": [{"size": "816"}]}}}, "dtype": {"type": "DT_FLOAT"}}}, {"name": "block5_4/conv0/weights", "op": "Const", "attr": {"dtype": {"type": "DT_FLOAT"}, "value": {"tensor": {"dtype": "DT_FLOAT", "tensorShape": {"dim": [{"size": "1"}, {"size": "1"}, {"size": "232"}, {"size": "816"}]}}}}}, {"name": "block5_4/conv0/biases", "op": "Const", "attr": {"dtype": {"type": "DT_FLOAT"}, "value": {"tensor": {"dtype": "DT_FLOAT", "tensorShape": {"dim": [{"size": "816"}]}}}}}, {"name": "block5_4/conv1/weights", "op": "Const", "attr": {"dtype": {"type": "DT_FLOAT"}, "value": {"tensor": {"dtype": "DT_FLOAT", "tensorShape": {"dim": [{"size": "5"}, {"size": "5"}, {"size": "816"}, {"size": "1"}]}}}}}, {"name": "block5_4/conv1/biases", "op": "Const", "attr": {"dtype": {"type": "DT_FLOAT"}, "value": {"tensor": {"dtype": "DT_FLOAT", "tensorShape": {"dim": [{"size": "816"}]}}}}}, {"name": "block5_4/conv2/weights", "op": "Const", "attr": {"value": {"tensor": {"dtype": "DT_FLOAT", "tensorShape": {"dim": [{"size": "1"}, {"size": "1"}, {"size": "816"}, {"size": "232"}]}}}, "dtype": {"type": "DT_FLOAT"}}}, {"name": "block5_4/conv2/biases", "op": "Const", "attr": {"dtype": {"type": "DT_FLOAT"}, "value": {"tensor": {"dtype": "DT_FLOAT", "tensorShape": {"dim": [{"size": "232"}]}}}}}, {"name": "ConstantFolding/block5_3/se/sigmoid_recip", "op": "Const", "attr": {"value": {"tensor": {"dtype": "DT_FLOAT", "tensorShape": {}}}, "dtype": {"type": "DT_FLOAT"}}}, {"name": "block5_3/se/pool/reduction_indices", "op": "Const", "attr": {"dtype": {"type": "DT_INT32"}, "value": {"tensor": {"dtype": "DT_INT32", "tensorShape": {"dim": [{"size": "2"}]}}}}}, {"name": "block5_3/se/conv0/weights", "op": "Const", "attr": {"dtype": {"type": "DT_FLOAT"}, "value": {"tensor": {"dtype": "DT_FLOAT", "tensorShape": {"dim": [{"size": "1"}, {"size": "1"}, {"size": "816"}, {"size": "204"}]}}}}}, {"name": "block5_3/se/conv0/biases", "op": "Const", "attr": {"value": {"tensor": {"dtype": "DT_FLOAT", "tensorShape": {"dim": [{"size": "204"}]}}}, "dtype": {"type": "DT_FLOAT"}}}, {"name": "block5_3/se/conv1/weights", "op": "Const", "attr": {"dtype": {"type": "DT_FLOAT"}, "value": {"tensor": {"dtype": "DT_FLOAT", "tensorShape": {"dim": [{"size": "1"}, {"size": "1"}, {"size": "204"}, {"size": "816"}]}}}}}, {"name": "block5_3/se/conv1/biases", "op": "Const", "attr": {"value": {"tensor": {"dtype": "DT_FLOAT", "tensorShape": {"dim": [{"size": "816"}]}}}, "dtype": {"type": "DT_FLOAT"}}}, {"name": "block5_3/conv0/weights", "op": "Const", "attr": {"value": {"tensor": {"dtype": "DT_FLOAT", "tensorShape": {"dim": [{"size": "1"}, {"size": "1"}, {"size": "232"}, {"size": "816"}]}}}, "dtype": {"type": "DT_FLOAT"}}}, {"name": "block5_3/conv0/biases", "op": "Const", "attr": {"dtype": {"type": "DT_FLOAT"}, "value": {"tensor": {"dtype": "DT_FLOAT", "tensorShape": {"dim": [{"size": "816"}]}}}}}, {"name": "block5_3/conv1/weights", "op": "Const", "attr": {"value": {"tensor": {"dtype": "DT_FLOAT", "tensorShape": {"dim": [{"size": "5"}, {"size": "5"}, {"size": "816"}, {"size": "1"}]}}}, "dtype": {"type": "DT_FLOAT"}}}, {"name": "block5_3/conv1/biases", "op": "Const", "attr": {"value": {"tensor": {"dtype": "DT_FLOAT", "tensorShape": {"dim": [{"size": "816"}]}}}, "dtype": {"type": "DT_FLOAT"}}}, {"name": "block5_3/conv2/weights", "op": "Const", "attr": {"dtype": {"type": "DT_FLOAT"}, "value": {"tensor": {"dtype": "DT_FLOAT", "tensorShape": {"dim": [{"size": "1"}, {"size": "1"}, {"size": "816"}, {"size": "232"}]}}}}}, {"name": "block5_3/conv2/biases", "op": "Const", "attr": {"dtype": {"type": "DT_FLOAT"}, "value": {"tensor": {"dtype": "DT_FLOAT", "tensorShape": {"dim": [{"size": "232"}]}}}}}, {"name": "ConstantFolding/block5_2/se/sigmoid_recip", "op": "Const", "attr": {"dtype": {"type": "DT_FLOAT"}, "value": {"tensor": {"dtype": "DT_FLOAT", "tensorShape": {}}}}}, {"name": "block5_2/se/pool/reduction_indices", "op": "Const", "attr": {"dtype": {"type": "DT_INT32"}, "value": {"tensor": {"dtype": "DT_INT32", "tensorShape": {"dim": [{"size": "2"}]}}}}}, {"name": "block5_2/se/conv0/weights", "op": "Const", "attr": {"dtype": {"type": "DT_FLOAT"}, "value": {"tensor": {"dtype": "DT_FLOAT", "tensorShape": {"dim": [{"size": "1"}, {"size": "1"}, {"size": "816"}, {"size": "204"}]}}}}}, {"name": "block5_2/se/conv0/biases", "op": "Const", "attr": {"value": {"tensor": {"dtype": "DT_FLOAT", "tensorShape": {"dim": [{"size": "204"}]}}}, "dtype": {"type": "DT_FLOAT"}}}, {"name": "block5_2/se/conv1/weights", "op": "Const", "attr": {"dtype": {"type": "DT_FLOAT"}, "value": {"tensor": {"dtype": "DT_FLOAT", "tensorShape": {"dim": [{"size": "1"}, {"size": "1"}, {"size": "204"}, {"size": "816"}]}}}}}, {"name": "block5_2/se/conv1/biases", "op": "Const", "attr": {"dtype": {"type": "DT_FLOAT"}, "value": {"tensor": {"dtype": "DT_FLOAT", "tensorShape": {"dim": [{"size": "816"}]}}}}}, {"name": "block5_2/conv0/weights", "op": "Const", "attr": {"dtype": {"type": "DT_FLOAT"}, "value": {"tensor": {"dtype": "DT_FLOAT", "tensorShape": {"dim": [{"size": "1"}, {"size": "1"}, {"size": "232"}, {"size": "816"}]}}}}}, {"name": "block5_2/conv0/biases", "op": "Const", "attr": {"dtype": {"type": "DT_FLOAT"}, "value": {"tensor": {"dtype": "DT_FLOAT", "tensorShape": {"dim": [{"size": "816"}]}}}}}, {"name": "block5_2/conv1/weights", "op": "Const", "attr": {"dtype": {"type": "DT_FLOAT"}, "value": {"tensor": {"dtype": "DT_FLOAT", "tensorShape": {"dim": [{"size": "5"}, {"size": "5"}, {"size": "816"}, {"size": "1"}]}}}}}, {"name": "block5_2/conv1/biases", "op": "Const", "attr": {"dtype": {"type": "DT_FLOAT"}, "value": {"tensor": {"dtype": "DT_FLOAT", "tensorShape": {"dim": [{"size": "816"}]}}}}}, {"name": "block5_2/conv2/weights", "op": "Const", "attr": {"value": {"tensor": {"dtype": "DT_FLOAT", "tensorShape": {"dim": [{"size": "1"}, {"size": "1"}, {"size": "816"}, {"size": "232"}]}}}, "dtype": {"type": "DT_FLOAT"}}}, {"name": "block5_2/conv2/biases", "op": "Const", "attr": {"dtype": {"type": "DT_FLOAT"}, "value": {"tensor": {"dtype": "DT_FLOAT", "tensorShape": {"dim": [{"size": "232"}]}}}}}, {"name": "ConstantFolding/block5_1/se/sigmoid_recip", "op": "Const", "attr": {"value": {"tensor": {"dtype": "DT_FLOAT", "tensorShape": {}}}, "dtype": {"type": "DT_FLOAT"}}}, {"name": "block5_1/se/pool/reduction_indices", "op": "Const", "attr": {"dtype": {"type": "DT_INT32"}, "value": {"tensor": {"dtype": "DT_INT32", "tensorShape": {"dim": [{"size": "2"}]}}}}}, {"name": "block5_1/se/conv0/weights", "op": "Const", "attr": {"value": {"tensor": {"dtype": "DT_FLOAT", "tensorShape": {"dim": [{"size": "1"}, {"size": "1"}, {"size": "816"}, {"size": "204"}]}}}, "dtype": {"type": "DT_FLOAT"}}}, {"name": "block5_1/se/conv0/biases", "op": "Const", "attr": {"dtype": {"type": "DT_FLOAT"}, "value": {"tensor": {"dtype": "DT_FLOAT", "tensorShape": {"dim": [{"size": "204"}]}}}}}, {"name": "block5_1/se/conv1/weights", "op": "Const", "attr": {"dtype": {"type": "DT_FLOAT"}, "value": {"tensor": {"dtype": "DT_FLOAT", "tensorShape": {"dim": [{"size": "1"}, {"size": "1"}, {"size": "204"}, {"size": "816"}]}}}}}, {"name": "block5_1/se/conv1/biases", "op": "Const", "attr": {"value": {"tensor": {"dtype": "DT_FLOAT", "tensorShape": {"dim": [{"size": "816"}]}}}, "dtype": {"type": "DT_FLOAT"}}}, {"name": "block5_1/conv0/weights", "op": "Const", "attr": {"value": {"tensor": {"dtype": "DT_FLOAT", "tensorShape": {"dim": [{"size": "1"}, {"size": "1"}, {"size": "232"}, {"size": "816"}]}}}, "dtype": {"type": "DT_FLOAT"}}}, {"name": "block5_1/conv0/biases", "op": "Const", "attr": {"value": {"tensor": {"dtype": "DT_FLOAT", "tensorShape": {"dim": [{"size": "816"}]}}}, "dtype": {"type": "DT_FLOAT"}}}, {"name": "block5_1/conv1/weights", "op": "Const", "attr": {"value": {"tensor": {"dtype": "DT_FLOAT", "tensorShape": {"dim": [{"size": "5"}, {"size": "5"}, {"size": "816"}, {"size": "1"}]}}}, "dtype": {"type": "DT_FLOAT"}}}, {"name": "block5_1/conv1/biases", "op": "Const", "attr": {"value": {"tensor": {"dtype": "DT_FLOAT", "tensorShape": {"dim": [{"size": "816"}]}}}, "dtype": {"type": "DT_FLOAT"}}}, {"name": "block5_1/conv2/weights", "op": "Const", "attr": {"value": {"tensor": {"dtype": "DT_FLOAT", "tensorShape": {"dim": [{"size": "1"}, {"size": "1"}, {"size": "816"}, {"size": "232"}]}}}, "dtype": {"type": "DT_FLOAT"}}}, {"name": "block5_1/conv2/biases", "op": "Const", "attr": {"value": {"tensor": {"dtype": "DT_FLOAT", "tensorShape": {"dim": [{"size": "232"}]}}}, "dtype": {"type": "DT_FLOAT"}}}, {"name": "ConstantFolding/block5_0/se/sigmoid_recip", "op": "Const", "attr": {"value": {"tensor": {"dtype": "DT_FLOAT", "tensorShape": {}}}, "dtype": {"type": "DT_FLOAT"}}}, {"name": "block5_0/se/pool/reduction_indices", "op": "Const", "attr": {"dtype": {"type": "DT_INT32"}, "value": {"tensor": {"dtype": "DT_INT32", "tensorShape": {"dim": [{"size": "2"}]}}}}}, {"name": "block5_0/se/conv0/weights", "op": "Const", "attr": {"dtype": {"type": "DT_FLOAT"}, "value": {"tensor": {"dtype": "DT_FLOAT", "tensorShape": {"dim": [{"size": "1"}, {"size": "1"}, {"size": "816"}, {"size": "204"}]}}}}}, {"name": "block5_0/se/conv0/biases", "op": "Const", "attr": {"value": {"tensor": {"dtype": "DT_FLOAT", "tensorShape": {"dim": [{"size": "204"}]}}}, "dtype": {"type": "DT_FLOAT"}}}, {"name": "block5_0/se/conv1/weights", "op": "Const", "attr": {"dtype": {"type": "DT_FLOAT"}, "value": {"tensor": {"dtype": "DT_FLOAT", "tensorShape": {"dim": [{"size": "1"}, {"size": "1"}, {"size": "204"}, {"size": "816"}]}}}}}, {"name": "block5_0/se/conv1/biases", "op": "Const", "attr": {"dtype": {"type": "DT_FLOAT"}, "value": {"tensor": {"dtype": "DT_FLOAT", "tensorShape": {"dim": [{"size": "816"}]}}}}}, {"name": "ConstantFolding/block4_4/se/sigmoid_recip", "op": "Const", "attr": {"dtype": {"type": "DT_FLOAT"}, "value": {"tensor": {"dtype": "DT_FLOAT", "tensorShape": {}}}}}, {"name": "block4_4/se/pool/reduction_indices", "op": "Const", "attr": {"dtype": {"type": "DT_INT32"}, "value": {"tensor": {"dtype": "DT_INT32", "tensorShape": {"dim": [{"size": "2"}]}}}}}, {"name": "block4_4/se/conv0/weights", "op": "Const", "attr": {"value": {"tensor": {"dtype": "DT_FLOAT", "tensorShape": {"dim": [{"size": "1"}, {"size": "1"}, {"size": "576"}, {"size": "144"}]}}}, "dtype": {"type": "DT_FLOAT"}}}, {"name": "block4_4/se/conv0/biases", "op": "Const", "attr": {"dtype": {"type": "DT_FLOAT"}, "value": {"tensor": {"dtype": "DT_FLOAT", "tensorShape": {"dim": [{"size": "144"}]}}}}}, {"name": "block4_4/se/conv1/weights", "op": "Const", "attr": {"dtype": {"type": "DT_FLOAT"}, "value": {"tensor": {"dtype": "DT_FLOAT", "tensorShape": {"dim": [{"size": "1"}, {"size": "1"}, {"size": "144"}, {"size": "576"}]}}}}}, {"name": "block4_4/se/conv1/biases", "op": "Const", "attr": {"dtype": {"type": "DT_FLOAT"}, "value": {"tensor": {"dtype": "DT_FLOAT", "tensorShape": {"dim": [{"size": "576"}]}}}}}, {"name": "block4_4/conv0/weights", "op": "Const", "attr": {"dtype": {"type": "DT_FLOAT"}, "value": {"tensor": {"dtype": "DT_FLOAT", "tensorShape": {"dim": [{"size": "1"}, {"size": "1"}, {"size": "136"}, {"size": "576"}]}}}}}, {"name": "block4_4/conv0/biases", "op": "Const", "attr": {"value": {"tensor": {"dtype": "DT_FLOAT", "tensorShape": {"dim": [{"size": "576"}]}}}, "dtype": {"type": "DT_FLOAT"}}}, {"name": "block4_4/conv1/weights", "op": "Const", "attr": {"dtype": {"type": "DT_FLOAT"}, "value": {"tensor": {"dtype": "DT_FLOAT", "tensorShape": {"dim": [{"size": "5"}, {"size": "5"}, {"size": "576"}, {"size": "1"}]}}}}}, {"name": "block4_4/conv1/biases", "op": "Const", "attr": {"dtype": {"type": "DT_FLOAT"}, "value": {"tensor": {"dtype": "DT_FLOAT", "tensorShape": {"dim": [{"size": "576"}]}}}}}, {"name": "block4_4/conv2/weights", "op": "Const", "attr": {"dtype": {"type": "DT_FLOAT"}, "value": {"tensor": {"dtype": "DT_FLOAT", "tensorShape": {"dim": [{"size": "1"}, {"size": "1"}, {"size": "576"}, {"size": "136"}]}}}}}, {"name": "block4_4/conv2/biases", "op": "Const", "attr": {"dtype": {"type": "DT_FLOAT"}, "value": {"tensor": {"dtype": "DT_FLOAT", "tensorShape": {"dim": [{"size": "136"}]}}}}}, {"name": "ConstantFolding/block4_3/se/sigmoid_recip", "op": "Const", "attr": {"dtype": {"type": "DT_FLOAT"}, "value": {"tensor": {"dtype": "DT_FLOAT", "tensorShape": {}}}}}, {"name": "block4_3/se/pool/reduction_indices", "op": "Const", "attr": {"value": {"tensor": {"dtype": "DT_INT32", "tensorShape": {"dim": [{"size": "2"}]}}}, "dtype": {"type": "DT_INT32"}}}, {"name": "block4_3/se/conv0/weights", "op": "Const", "attr": {"value": {"tensor": {"dtype": "DT_FLOAT", "tensorShape": {"dim": [{"size": "1"}, {"size": "1"}, {"size": "576"}, {"size": "144"}]}}}, "dtype": {"type": "DT_FLOAT"}}}, {"name": "block4_3/se/conv0/biases", "op": "Const", "attr": {"value": {"tensor": {"dtype": "DT_FLOAT", "tensorShape": {"dim": [{"size": "144"}]}}}, "dtype": {"type": "DT_FLOAT"}}}, {"name": "block4_3/se/conv1/weights", "op": "Const", "attr": {"value": {"tensor": {"dtype": "DT_FLOAT", "tensorShape": {"dim": [{"size": "1"}, {"size": "1"}, {"size": "144"}, {"size": "576"}]}}}, "dtype": {"type": "DT_FLOAT"}}}, {"name": "block4_3/se/conv1/biases", "op": "Const", "attr": {"value": {"tensor": {"dtype": "DT_FLOAT", "tensorShape": {"dim": [{"size": "576"}]}}}, "dtype": {"type": "DT_FLOAT"}}}, {"name": "block4_3/conv0/weights", "op": "Const", "attr": {"value": {"tensor": {"dtype": "DT_FLOAT", "tensorShape": {"dim": [{"size": "1"}, {"size": "1"}, {"size": "136"}, {"size": "576"}]}}}, "dtype": {"type": "DT_FLOAT"}}}, {"name": "block4_3/conv0/biases", "op": "Const", "attr": {"value": {"tensor": {"dtype": "DT_FLOAT", "tensorShape": {"dim": [{"size": "576"}]}}}, "dtype": {"type": "DT_FLOAT"}}}, {"name": "block4_3/conv1/weights", "op": "Const", "attr": {"dtype": {"type": "DT_FLOAT"}, "value": {"tensor": {"dtype": "DT_FLOAT", "tensorShape": {"dim": [{"size": "5"}, {"size": "5"}, {"size": "576"}, {"size": "1"}]}}}}}, {"name": "block4_3/conv1/biases", "op": "Const", "attr": {"dtype": {"type": "DT_FLOAT"}, "value": {"tensor": {"dtype": "DT_FLOAT", "tensorShape": {"dim": [{"size": "576"}]}}}}}, {"name": "block4_3/conv2/weights", "op": "Const", "attr": {"dtype": {"type": "DT_FLOAT"}, "value": {"tensor": {"dtype": "DT_FLOAT", "tensorShape": {"dim": [{"size": "1"}, {"size": "1"}, {"size": "576"}, {"size": "136"}]}}}}}, {"name": "block4_3/conv2/biases", "op": "Const", "attr": {"value": {"tensor": {"dtype": "DT_FLOAT", "tensorShape": {"dim": [{"size": "136"}]}}}, "dtype": {"type": "DT_FLOAT"}}}, {"name": "ConstantFolding/block4_2/se/sigmoid_recip", "op": "Const", "attr": {"dtype": {"type": "DT_FLOAT"}, "value": {"tensor": {"dtype": "DT_FLOAT", "tensorShape": {}}}}}, {"name": "block4_2/se/pool/reduction_indices", "op": "Const", "attr": {"dtype": {"type": "DT_INT32"}, "value": {"tensor": {"dtype": "DT_INT32", "tensorShape": {"dim": [{"size": "2"}]}}}}}, {"name": "block4_2/se/conv0/weights", "op": "Const", "attr": {"dtype": {"type": "DT_FLOAT"}, "value": {"tensor": {"dtype": "DT_FLOAT", "tensorShape": {"dim": [{"size": "1"}, {"size": "1"}, {"size": "576"}, {"size": "144"}]}}}}}, {"name": "block4_2/se/conv0/biases", "op": "Const", "attr": {"dtype": {"type": "DT_FLOAT"}, "value": {"tensor": {"dtype": "DT_FLOAT", "tensorShape": {"dim": [{"size": "144"}]}}}}}, {"name": "block4_2/se/conv1/weights", "op": "Const", "attr": {"value": {"tensor": {"dtype": "DT_FLOAT", "tensorShape": {"dim": [{"size": "1"}, {"size": "1"}, {"size": "144"}, {"size": "576"}]}}}, "dtype": {"type": "DT_FLOAT"}}}, {"name": "block4_2/se/conv1/biases", "op": "Const", "attr": {"dtype": {"type": "DT_FLOAT"}, "value": {"tensor": {"dtype": "DT_FLOAT", "tensorShape": {"dim": [{"size": "576"}]}}}}}, {"name": "block4_2/conv0/weights", "op": "Const", "attr": {"value": {"tensor": {"dtype": "DT_FLOAT", "tensorShape": {"dim": [{"size": "1"}, {"size": "1"}, {"size": "136"}, {"size": "576"}]}}}, "dtype": {"type": "DT_FLOAT"}}}, {"name": "block4_2/conv0/biases", "op": "Const", "attr": {"dtype": {"type": "DT_FLOAT"}, "value": {"tensor": {"dtype": "DT_FLOAT", "tensorShape": {"dim": [{"size": "576"}]}}}}}, {"name": "block4_2/conv1/weights", "op": "Const", "attr": {"dtype": {"type": "DT_FLOAT"}, "value": {"tensor": {"dtype": "DT_FLOAT", "tensorShape": {"dim": [{"size": "5"}, {"size": "5"}, {"size": "576"}, {"size": "1"}]}}}}}, {"name": "block4_2/conv1/biases", "op": "Const", "attr": {"value": {"tensor": {"dtype": "DT_FLOAT", "tensorShape": {"dim": [{"size": "576"}]}}}, "dtype": {"type": "DT_FLOAT"}}}, {"name": "block4_2/conv2/weights", "op": "Const", "attr": {"dtype": {"type": "DT_FLOAT"}, "value": {"tensor": {"dtype": "DT_FLOAT", "tensorShape": {"dim": [{"size": "1"}, {"size": "1"}, {"size": "576"}, {"size": "136"}]}}}}}, {"name": "block4_2/conv2/biases", "op": "Const", "attr": {"dtype": {"type": "DT_FLOAT"}, "value": {"tensor": {"dtype": "DT_FLOAT", "tensorShape": {"dim": [{"size": "136"}]}}}}}, {"name": "ConstantFolding/block4_1/se/sigmoid_recip", "op": "Const", "attr": {"value": {"tensor": {"dtype": "DT_FLOAT", "tensorShape": {}}}, "dtype": {"type": "DT_FLOAT"}}}, {"name": "block4_1/se/pool/reduction_indices", "op": "Const", "attr": {"dtype": {"type": "DT_INT32"}, "value": {"tensor": {"dtype": "DT_INT32", "tensorShape": {"dim": [{"size": "2"}]}}}}}, {"name": "block4_1/se/conv0/weights", "op": "Const", "attr": {"value": {"tensor": {"dtype": "DT_FLOAT", "tensorShape": {"dim": [{"size": "1"}, {"size": "1"}, {"size": "576"}, {"size": "144"}]}}}, "dtype": {"type": "DT_FLOAT"}}}, {"name": "block4_1/se/conv0/biases", "op": "Const", "attr": {"value": {"tensor": {"dtype": "DT_FLOAT", "tensorShape": {"dim": [{"size": "144"}]}}}, "dtype": {"type": "DT_FLOAT"}}}, {"name": "block4_1/se/conv1/weights", "op": "Const", "attr": {"value": {"tensor": {"dtype": "DT_FLOAT", "tensorShape": {"dim": [{"size": "1"}, {"size": "1"}, {"size": "144"}, {"size": "576"}]}}}, "dtype": {"type": "DT_FLOAT"}}}, {"name": "block4_1/se/conv1/biases", "op": "Const", "attr": {"dtype": {"type": "DT_FLOAT"}, "value": {"tensor": {"dtype": "DT_FLOAT", "tensorShape": {"dim": [{"size": "576"}]}}}}}, {"name": "block4_1/conv0/weights", "op": "Const", "attr": {"dtype": {"type": "DT_FLOAT"}, "value": {"tensor": {"dtype": "DT_FLOAT", "tensorShape": {"dim": [{"size": "1"}, {"size": "1"}, {"size": "136"}, {"size": "576"}]}}}}}, {"name": "block4_1/conv0/biases", "op": "Const", "attr": {"value": {"tensor": {"dtype": "DT_FLOAT", "tensorShape": {"dim": [{"size": "576"}]}}}, "dtype": {"type": "DT_FLOAT"}}}, {"name": "block4_1/conv1/weights", "op": "Const", "attr": {"dtype": {"type": "DT_FLOAT"}, "value": {"tensor": {"dtype": "DT_FLOAT", "tensorShape": {"dim": [{"size": "5"}, {"size": "5"}, {"size": "576"}, {"size": "1"}]}}}}}, {"name": "block4_1/conv1/biases", "op": "Const", "attr": {"value": {"tensor": {"dtype": "DT_FLOAT", "tensorShape": {"dim": [{"size": "576"}]}}}, "dtype": {"type": "DT_FLOAT"}}}, {"name": "block4_1/conv2/weights", "op": "Const", "attr": {"dtype": {"type": "DT_FLOAT"}, "value": {"tensor": {"dtype": "DT_FLOAT", "tensorShape": {"dim": [{"size": "1"}, {"size": "1"}, {"size": "576"}, {"size": "136"}]}}}}}, {"name": "block4_1/conv2/biases", "op": "Const", "attr": {"value": {"tensor": {"dtype": "DT_FLOAT", "tensorShape": {"dim": [{"size": "136"}]}}}, "dtype": {"type": "DT_FLOAT"}}}, {"name": "ConstantFolding/block4_0/se/sigmoid_recip", "op": "Const", "attr": {"value": {"tensor": {"dtype": "DT_FLOAT", "tensorShape": {}}}, "dtype": {"type": "DT_FLOAT"}}}, {"name": "block4_0/se/pool/reduction_indices", "op": "Const", "attr": {"dtype": {"type": "DT_INT32"}, "value": {"tensor": {"dtype": "DT_INT32", "tensorShape": {"dim": [{"size": "2"}]}}}}}, {"name": "block4_0/se/conv0/weights", "op": "Const", "attr": {"value": {"tensor": {"dtype": "DT_FLOAT", "tensorShape": {"dim": [{"size": "1"}, {"size": "1"}, {"size": "576"}, {"size": "144"}]}}}, "dtype": {"type": "DT_FLOAT"}}}, {"name": "block4_0/se/conv0/biases", "op": "Const", "attr": {"value": {"tensor": {"dtype": "DT_FLOAT", "tensorShape": {"dim": [{"size": "144"}]}}}, "dtype": {"type": "DT_FLOAT"}}}, {"name": "block4_0/se/conv1/weights", "op": "Const", "attr": {"dtype": {"type": "DT_FLOAT"}, "value": {"tensor": {"dtype": "DT_FLOAT", "tensorShape": {"dim": [{"size": "1"}, {"size": "1"}, {"size": "144"}, {"size": "576"}]}}}}}, {"name": "block4_0/se/conv1/biases", "op": "Const", "attr": {"value": {"tensor": {"dtype": "DT_FLOAT", "tensorShape": {"dim": [{"size": "576"}]}}}, "dtype": {"type": "DT_FLOAT"}}}, {"name": "ConstantFolding/block3_4/se/sigmoid_recip", "op": "Const", "attr": {"dtype": {"type": "DT_FLOAT"}, "value": {"tensor": {"dtype": "DT_FLOAT", "tensorShape": {}}}}}, {"name": "block3_4/se/pool/reduction_indices", "op": "Const", "attr": {"value": {"tensor": {"dtype": "DT_INT32", "tensorShape": {"dim": [{"size": "2"}]}}}, "dtype": {"type": "DT_INT32"}}}, {"name": "block3_4/se/conv0/weights", "op": "Const", "attr": {"dtype": {"type": "DT_FLOAT"}, "value": {"tensor": {"dtype": "DT_FLOAT", "tensorShape": {"dim": [{"size": "1"}, {"size": "1"}, {"size": "288"}, {"size": "72"}]}}}}}, {"name": "block3_4/se/conv0/biases", "op": "Const", "attr": {"value": {"tensor": {"dtype": "DT_FLOAT", "tensorShape": {"dim": [{"size": "72"}]}}}, "dtype": {"type": "DT_FLOAT"}}}, {"name": "block3_4/se/conv1/weights", "op": "Const", "attr": {"dtype": {"type": "DT_FLOAT"}, "value": {"tensor": {"dtype": "DT_FLOAT", "tensorShape": {"dim": [{"size": "1"}, {"size": "1"}, {"size": "72"}, {"size": "288"}]}}}}}, {"name": "block3_4/se/conv1/biases", "op": "Const", "attr": {"dtype": {"type": "DT_FLOAT"}, "value": {"tensor": {"dtype": "DT_FLOAT", "tensorShape": {"dim": [{"size": "288"}]}}}}}, {"name": "block3_4/conv0/weights", "op": "Const", "attr": {"value": {"tensor": {"dtype": "DT_FLOAT", "tensorShape": {"dim": [{"size": "1"}, {"size": "1"}, {"size": "96"}, {"size": "288"}]}}}, "dtype": {"type": "DT_FLOAT"}}}, {"name": "block3_4/conv0/biases", "op": "Const", "attr": {"value": {"tensor": {"dtype": "DT_FLOAT", "tensorShape": {"dim": [{"size": "288"}]}}}, "dtype": {"type": "DT_FLOAT"}}}, {"name": "block3_4/conv1/weights", "op": "Const", "attr": {"value": {"tensor": {"dtype": "DT_FLOAT", "tensorShape": {"dim": [{"size": "3"}, {"size": "3"}, {"size": "288"}, {"size": "1"}]}}}, "dtype": {"type": "DT_FLOAT"}}}, {"name": "block3_4/conv1/biases", "op": "Const", "attr": {"dtype": {"type": "DT_FLOAT"}, "value": {"tensor": {"dtype": "DT_FLOAT", "tensorShape": {"dim": [{"size": "288"}]}}}}}, {"name": "block3_4/conv2/weights", "op": "Const", "attr": {"value": {"tensor": {"dtype": "DT_FLOAT", "tensorShape": {"dim": [{"size": "1"}, {"size": "1"}, {"size": "288"}, {"size": "96"}]}}}, "dtype": {"type": "DT_FLOAT"}}}, {"name": "block3_4/conv2/biases", "op": "Const", "attr": {"value": {"tensor": {"dtype": "DT_FLOAT", "tensorShape": {"dim": [{"size": "96"}]}}}, "dtype": {"type": "DT_FLOAT"}}}, {"name": "ConstantFolding/block3_3/se/sigmoid_recip", "op": "Const", "attr": {"dtype": {"type": "DT_FLOAT"}, "value": {"tensor": {"dtype": "DT_FLOAT", "tensorShape": {}}}}}, {"name": "block3_3/se/pool/reduction_indices", "op": "Const", "attr": {"dtype": {"type": "DT_INT32"}, "value": {"tensor": {"dtype": "DT_INT32", "tensorShape": {"dim": [{"size": "2"}]}}}}}, {"name": "block3_3/se/conv0/weights", "op": "Const", "attr": {"value": {"tensor": {"dtype": "DT_FLOAT", "tensorShape": {"dim": [{"size": "1"}, {"size": "1"}, {"size": "288"}, {"size": "72"}]}}}, "dtype": {"type": "DT_FLOAT"}}}, {"name": "block3_3/se/conv0/biases", "op": "Const", "attr": {"value": {"tensor": {"dtype": "DT_FLOAT", "tensorShape": {"dim": [{"size": "72"}]}}}, "dtype": {"type": "DT_FLOAT"}}}, {"name": "block3_3/se/conv1/weights", "op": "Const", "attr": {"value": {"tensor": {"dtype": "DT_FLOAT", "tensorShape": {"dim": [{"size": "1"}, {"size": "1"}, {"size": "72"}, {"size": "288"}]}}}, "dtype": {"type": "DT_FLOAT"}}}, {"name": "block3_3/se/conv1/biases", "op": "Const", "attr": {"value": {"tensor": {"dtype": "DT_FLOAT", "tensorShape": {"dim": [{"size": "288"}]}}}, "dtype": {"type": "DT_FLOAT"}}}, {"name": "block3_3/conv0/weights", "op": "Const", "attr": {"dtype": {"type": "DT_FLOAT"}, "value": {"tensor": {"dtype": "DT_FLOAT", "tensorShape": {"dim": [{"size": "1"}, {"size": "1"}, {"size": "96"}, {"size": "288"}]}}}}}, {"name": "block3_3/conv0/biases", "op": "Const", "attr": {"value": {"tensor": {"dtype": "DT_FLOAT", "tensorShape": {"dim": [{"size": "288"}]}}}, "dtype": {"type": "DT_FLOAT"}}}, {"name": "block3_3/conv1/weights", "op": "Const", "attr": {"value": {"tensor": {"dtype": "DT_FLOAT", "tensorShape": {"dim": [{"size": "3"}, {"size": "3"}, {"size": "288"}, {"size": "1"}]}}}, "dtype": {"type": "DT_FLOAT"}}}, {"name": "block3_3/conv1/biases", "op": "Const", "attr": {"value": {"tensor": {"dtype": "DT_FLOAT", "tensorShape": {"dim": [{"size": "288"}]}}}, "dtype": {"type": "DT_FLOAT"}}}, {"name": "block3_3/conv2/weights", "op": "Const", "attr": {"value": {"tensor": {"dtype": "DT_FLOAT", "tensorShape": {"dim": [{"size": "1"}, {"size": "1"}, {"size": "288"}, {"size": "96"}]}}}, "dtype": {"type": "DT_FLOAT"}}}, {"name": "block3_3/conv2/biases", "op": "Const", "attr": {"dtype": {"type": "DT_FLOAT"}, "value": {"tensor": {"dtype": "DT_FLOAT", "tensorShape": {"dim": [{"size": "96"}]}}}}}, {"name": "ConstantFolding/block3_2/se/sigmoid_recip", "op": "Const", "attr": {"value": {"tensor": {"dtype": "DT_FLOAT", "tensorShape": {}}}, "dtype": {"type": "DT_FLOAT"}}}, {"name": "block3_2/se/pool/reduction_indices", "op": "Const", "attr": {"dtype": {"type": "DT_INT32"}, "value": {"tensor": {"dtype": "DT_INT32", "tensorShape": {"dim": [{"size": "2"}]}}}}}, {"name": "block3_2/se/conv0/weights", "op": "Const", "attr": {"dtype": {"type": "DT_FLOAT"}, "value": {"tensor": {"dtype": "DT_FLOAT", "tensorShape": {"dim": [{"size": "1"}, {"size": "1"}, {"size": "288"}, {"size": "72"}]}}}}}, {"name": "block3_2/se/conv0/biases", "op": "Const", "attr": {"value": {"tensor": {"dtype": "DT_FLOAT", "tensorShape": {"dim": [{"size": "72"}]}}}, "dtype": {"type": "DT_FLOAT"}}}, {"name": "block3_2/se/conv1/weights", "op": "Const", "attr": {"dtype": {"type": "DT_FLOAT"}, "value": {"tensor": {"dtype": "DT_FLOAT", "tensorShape": {"dim": [{"size": "1"}, {"size": "1"}, {"size": "72"}, {"size": "288"}]}}}}}, {"name": "block3_2/se/conv1/biases", "op": "Const", "attr": {"value": {"tensor": {"dtype": "DT_FLOAT", "tensorShape": {"dim": [{"size": "288"}]}}}, "dtype": {"type": "DT_FLOAT"}}}, {"name": "block3_2/conv0/weights", "op": "Const", "attr": {"dtype": {"type": "DT_FLOAT"}, "value": {"tensor": {"dtype": "DT_FLOAT", "tensorShape": {"dim": [{"size": "1"}, {"size": "1"}, {"size": "96"}, {"size": "288"}]}}}}}, {"name": "block3_2/conv0/biases", "op": "Const", "attr": {"dtype": {"type": "DT_FLOAT"}, "value": {"tensor": {"dtype": "DT_FLOAT", "tensorShape": {"dim": [{"size": "288"}]}}}}}, {"name": "block3_2/conv1/weights", "op": "Const", "attr": {"value": {"tensor": {"dtype": "DT_FLOAT", "tensorShape": {"dim": [{"size": "3"}, {"size": "3"}, {"size": "288"}, {"size": "1"}]}}}, "dtype": {"type": "DT_FLOAT"}}}, {"name": "block3_2/conv1/biases", "op": "Const", "attr": {"dtype": {"type": "DT_FLOAT"}, "value": {"tensor": {"dtype": "DT_FLOAT", "tensorShape": {"dim": [{"size": "288"}]}}}}}, {"name": "block3_2/conv2/weights", "op": "Const", "attr": {"value": {"tensor": {"dtype": "DT_FLOAT", "tensorShape": {"dim": [{"size": "1"}, {"size": "1"}, {"size": "288"}, {"size": "96"}]}}}, "dtype": {"type": "DT_FLOAT"}}}, {"name": "block3_2/conv2/biases", "op": "Const", "attr": {"value": {"tensor": {"dtype": "DT_FLOAT", "tensorShape": {"dim": [{"size": "96"}]}}}, "dtype": {"type": "DT_FLOAT"}}}, {"name": "ConstantFolding/block3_1/se/sigmoid_recip", "op": "Const", "attr": {"dtype": {"type": "DT_FLOAT"}, "value": {"tensor": {"dtype": "DT_FLOAT", "tensorShape": {}}}}}, {"name": "block3_1/se/pool/reduction_indices", "op": "Const", "attr": {"dtype": {"type": "DT_INT32"}, "value": {"tensor": {"dtype": "DT_INT32", "tensorShape": {"dim": [{"size": "2"}]}}}}}, {"name": "block3_1/se/conv0/weights", "op": "Const", "attr": {"value": {"tensor": {"dtype": "DT_FLOAT", "tensorShape": {"dim": [{"size": "1"}, {"size": "1"}, {"size": "288"}, {"size": "72"}]}}}, "dtype": {"type": "DT_FLOAT"}}}, {"name": "block3_1/se/conv0/biases", "op": "Const", "attr": {"value": {"tensor": {"dtype": "DT_FLOAT", "tensorShape": {"dim": [{"size": "72"}]}}}, "dtype": {"type": "DT_FLOAT"}}}, {"name": "block3_1/se/conv1/weights", "op": "Const", "attr": {"value": {"tensor": {"dtype": "DT_FLOAT", "tensorShape": {"dim": [{"size": "1"}, {"size": "1"}, {"size": "72"}, {"size": "288"}]}}}, "dtype": {"type": "DT_FLOAT"}}}, {"name": "block3_1/se/conv1/biases", "op": "Const", "attr": {"dtype": {"type": "DT_FLOAT"}, "value": {"tensor": {"dtype": "DT_FLOAT", "tensorShape": {"dim": [{"size": "288"}]}}}}}, {"name": "block3_1/conv0/weights", "op": "Const", "attr": {"value": {"tensor": {"dtype": "DT_FLOAT", "tensorShape": {"dim": [{"size": "1"}, {"size": "1"}, {"size": "96"}, {"size": "288"}]}}}, "dtype": {"type": "DT_FLOAT"}}}, {"name": "block3_1/conv0/biases", "op": "Const", "attr": {"dtype": {"type": "DT_FLOAT"}, "value": {"tensor": {"dtype": "DT_FLOAT", "tensorShape": {"dim": [{"size": "288"}]}}}}}, {"name": "block3_1/conv1/weights", "op": "Const", "attr": {"value": {"tensor": {"dtype": "DT_FLOAT", "tensorShape": {"dim": [{"size": "3"}, {"size": "3"}, {"size": "288"}, {"size": "1"}]}}}, "dtype": {"type": "DT_FLOAT"}}}, {"name": "block3_1/conv1/biases", "op": "Const", "attr": {"value": {"tensor": {"dtype": "DT_FLOAT", "tensorShape": {"dim": [{"size": "288"}]}}}, "dtype": {"type": "DT_FLOAT"}}}, {"name": "block3_1/conv2/weights", "op": "Const", "attr": {"value": {"tensor": {"dtype": "DT_FLOAT", "tensorShape": {"dim": [{"size": "1"}, {"size": "1"}, {"size": "288"}, {"size": "96"}]}}}, "dtype": {"type": "DT_FLOAT"}}}, {"name": "block3_1/conv2/biases", "op": "Const", "attr": {"dtype": {"type": "DT_FLOAT"}, "value": {"tensor": {"dtype": "DT_FLOAT", "tensorShape": {"dim": [{"size": "96"}]}}}}}, {"name": "ConstantFolding/block3_0/se/sigmoid_recip", "op": "Const", "attr": {"value": {"tensor": {"dtype": "DT_FLOAT", "tensorShape": {}}}, "dtype": {"type": "DT_FLOAT"}}}, {"name": "block3_0/se/pool/reduction_indices", "op": "Const", "attr": {"dtype": {"type": "DT_INT32"}, "value": {"tensor": {"dtype": "DT_INT32", "tensorShape": {"dim": [{"size": "2"}]}}}}}, {"name": "block3_0/se/conv0/weights", "op": "Const", "attr": {"dtype": {"type": "DT_FLOAT"}, "value": {"tensor": {"dtype": "DT_FLOAT", "tensorShape": {"dim": [{"size": "1"}, {"size": "1"}, {"size": "288"}, {"size": "72"}]}}}}}, {"name": "block3_0/se/conv0/biases", "op": "Const", "attr": {"value": {"tensor": {"dtype": "DT_FLOAT", "tensorShape": {"dim": [{"size": "72"}]}}}, "dtype": {"type": "DT_FLOAT"}}}, {"name": "block3_0/se/conv1/weights", "op": "Const", "attr": {"dtype": {"type": "DT_FLOAT"}, "value": {"tensor": {"dtype": "DT_FLOAT", "tensorShape": {"dim": [{"size": "1"}, {"size": "1"}, {"size": "72"}, {"size": "288"}]}}}}}, {"name": "block3_0/se/conv1/biases", "op": "Const", "attr": {"value": {"tensor": {"dtype": "DT_FLOAT", "tensorShape": {"dim": [{"size": "288"}]}}}, "dtype": {"type": "DT_FLOAT"}}}, {"name": "ConstantFolding/block2_2/se/sigmoid_recip", "op": "Const", "attr": {"dtype": {"type": "DT_FLOAT"}, "value": {"tensor": {"dtype": "DT_FLOAT", "tensorShape": {}}}}}, {"name": "block2_2/se/pool/reduction_indices", "op": "Const", "attr": {"dtype": {"type": "DT_INT32"}, "value": {"tensor": {"dtype": "DT_INT32", "tensorShape": {"dim": [{"size": "2"}]}}}}}, {"name": "block2_2/se/conv0/weights", "op": "Const", "attr": {"value": {"tensor": {"dtype": "DT_FLOAT", "tensorShape": {"dim": [{"size": "1"}, {"size": "1"}, {"size": "192"}, {"size": "48"}]}}}, "dtype": {"type": "DT_FLOAT"}}}, {"name": "block2_2/se/conv0/biases", "op": "Const", "attr": {"value": {"tensor": {"dtype": "DT_FLOAT", "tensorShape": {"dim": [{"size": "48"}]}}}, "dtype": {"type": "DT_FLOAT"}}}, {"name": "block2_2/se/conv1/weights", "op": "Const", "attr": {"dtype": {"type": "DT_FLOAT"}, "value": {"tensor": {"dtype": "DT_FLOAT", "tensorShape": {"dim": [{"size": "1"}, {"size": "1"}, {"size": "48"}, {"size": "192"}]}}}}}, {"name": "block2_2/se/conv1/biases", "op": "Const", "attr": {"dtype": {"type": "DT_FLOAT"}, "value": {"tensor": {"dtype": "DT_FLOAT", "tensorShape": {"dim": [{"size": "192"}]}}}}}, {"name": "block2_2/conv0/weights", "op": "Const", "attr": {"value": {"tensor": {"dtype": "DT_FLOAT", "tensorShape": {"dim": [{"size": "1"}, {"size": "1"}, {"size": "48"}, {"size": "192"}]}}}, "dtype": {"type": "DT_FLOAT"}}}, {"name": "block2_2/conv0/biases", "op": "Const", "attr": {"value": {"tensor": {"dtype": "DT_FLOAT", "tensorShape": {"dim": [{"size": "192"}]}}}, "dtype": {"type": "DT_FLOAT"}}}, {"name": "block2_2/conv1/weights", "op": "Const", "attr": {"value": {"tensor": {"dtype": "DT_FLOAT", "tensorShape": {"dim": [{"size": "5"}, {"size": "5"}, {"size": "192"}, {"size": "1"}]}}}, "dtype": {"type": "DT_FLOAT"}}}, {"name": "block2_2/conv1/biases", "op": "Const", "attr": {"value": {"tensor": {"dtype": "DT_FLOAT", "tensorShape": {"dim": [{"size": "192"}]}}}, "dtype": {"type": "DT_FLOAT"}}}, {"name": "block2_2/conv2/weights", "op": "Const", "attr": {"value": {"tensor": {"dtype": "DT_FLOAT", "tensorShape": {"dim": [{"size": "1"}, {"size": "1"}, {"size": "192"}, {"size": "48"}]}}}, "dtype": {"type": "DT_FLOAT"}}}, {"name": "block2_2/conv2/biases", "op": "Const", "attr": {"value": {"tensor": {"dtype": "DT_FLOAT", "tensorShape": {"dim": [{"size": "48"}]}}}, "dtype": {"type": "DT_FLOAT"}}}, {"name": "ConstantFolding/block2_1/se/sigmoid_recip", "op": "Const", "attr": {"dtype": {"type": "DT_FLOAT"}, "value": {"tensor": {"dtype": "DT_FLOAT", "tensorShape": {}}}}}, {"name": "block2_1/se/pool/reduction_indices", "op": "Const", "attr": {"value": {"tensor": {"dtype": "DT_INT32", "tensorShape": {"dim": [{"size": "2"}]}}}, "dtype": {"type": "DT_INT32"}}}, {"name": "block2_1/se/conv0/weights", "op": "Const", "attr": {"value": {"tensor": {"dtype": "DT_FLOAT", "tensorShape": {"dim": [{"size": "1"}, {"size": "1"}, {"size": "192"}, {"size": "48"}]}}}, "dtype": {"type": "DT_FLOAT"}}}, {"name": "block2_1/se/conv0/biases", "op": "Const", "attr": {"value": {"tensor": {"dtype": "DT_FLOAT", "tensorShape": {"dim": [{"size": "48"}]}}}, "dtype": {"type": "DT_FLOAT"}}}, {"name": "block2_1/se/conv1/weights", "op": "Const", "attr": {"value": {"tensor": {"dtype": "DT_FLOAT", "tensorShape": {"dim": [{"size": "1"}, {"size": "1"}, {"size": "48"}, {"size": "192"}]}}}, "dtype": {"type": "DT_FLOAT"}}}, {"name": "block2_1/se/conv1/biases", "op": "Const", "attr": {"value": {"tensor": {"dtype": "DT_FLOAT", "tensorShape": {"dim": [{"size": "192"}]}}}, "dtype": {"type": "DT_FLOAT"}}}, {"name": "block2_1/conv0/weights", "op": "Const", "attr": {"value": {"tensor": {"dtype": "DT_FLOAT", "tensorShape": {"dim": [{"size": "1"}, {"size": "1"}, {"size": "48"}, {"size": "192"}]}}}, "dtype": {"type": "DT_FLOAT"}}}, {"name": "block2_1/conv0/biases", "op": "Const", "attr": {"dtype": {"type": "DT_FLOAT"}, "value": {"tensor": {"dtype": "DT_FLOAT", "tensorShape": {"dim": [{"size": "192"}]}}}}}, {"name": "block2_1/conv1/weights", "op": "Const", "attr": {"value": {"tensor": {"dtype": "DT_FLOAT", "tensorShape": {"dim": [{"size": "5"}, {"size": "5"}, {"size": "192"}, {"size": "1"}]}}}, "dtype": {"type": "DT_FLOAT"}}}, {"name": "block2_1/conv1/biases", "op": "Const", "attr": {"dtype": {"type": "DT_FLOAT"}, "value": {"tensor": {"dtype": "DT_FLOAT", "tensorShape": {"dim": [{"size": "192"}]}}}}}, {"name": "block2_1/conv2/weights", "op": "Const", "attr": {"value": {"tensor": {"dtype": "DT_FLOAT", "tensorShape": {"dim": [{"size": "1"}, {"size": "1"}, {"size": "192"}, {"size": "48"}]}}}, "dtype": {"type": "DT_FLOAT"}}}, {"name": "block2_1/conv2/biases", "op": "Const", "attr": {"dtype": {"type": "DT_FLOAT"}, "value": {"tensor": {"dtype": "DT_FLOAT", "tensorShape": {"dim": [{"size": "48"}]}}}}}, {"name": "ConstantFolding/block2_0/se/sigmoid_recip", "op": "Const", "attr": {"value": {"tensor": {"dtype": "DT_FLOAT", "tensorShape": {}}}, "dtype": {"type": "DT_FLOAT"}}}, {"name": "block2_0/se/pool/reduction_indices", "op": "Const", "attr": {"value": {"tensor": {"dtype": "DT_INT32", "tensorShape": {"dim": [{"size": "2"}]}}}, "dtype": {"type": "DT_INT32"}}}, {"name": "block2_0/se/conv0/weights", "op": "Const", "attr": {"dtype": {"type": "DT_FLOAT"}, "value": {"tensor": {"dtype": "DT_FLOAT", "tensorShape": {"dim": [{"size": "1"}, {"size": "1"}, {"size": "192"}, {"size": "48"}]}}}}}, {"name": "block2_0/se/conv0/biases", "op": "Const", "attr": {"value": {"tensor": {"dtype": "DT_FLOAT", "tensorShape": {"dim": [{"size": "48"}]}}}, "dtype": {"type": "DT_FLOAT"}}}, {"name": "block2_0/se/conv1/weights", "op": "Const", "attr": {"dtype": {"type": "DT_FLOAT"}, "value": {"tensor": {"dtype": "DT_FLOAT", "tensorShape": {"dim": [{"size": "1"}, {"size": "1"}, {"size": "48"}, {"size": "192"}]}}}}}, {"name": "block2_0/se/conv1/biases", "op": "Const", "attr": {"value": {"tensor": {"dtype": "DT_FLOAT", "tensorShape": {"dim": [{"size": "192"}]}}}, "dtype": {"type": "DT_FLOAT"}}}, {"name": "ConstantFolding/block1_2/se/sigmoid_recip", "op": "Const", "attr": {"dtype": {"type": "DT_FLOAT"}, "value": {"tensor": {"dtype": "DT_FLOAT", "tensorShape": {}}}}}, {"name": "block1_2/se/pool/reduction_indices", "op": "Const", "attr": {"value": {"tensor": {"dtype": "DT_INT32", "tensorShape": {"dim": [{"size": "2"}]}}}, "dtype": {"type": "DT_INT32"}}}, {"name": "block1_2/se/conv0/weights", "op": "Const", "attr": {"value": {"tensor": {"dtype": "DT_FLOAT", "tensorShape": {"dim": [{"size": "1"}, {"size": "1"}, {"size": "96"}, {"size": "24"}]}}}, "dtype": {"type": "DT_FLOAT"}}}, {"name": "block1_2/se/conv0/biases", "op": "Const", "attr": {"value": {"tensor": {"dtype": "DT_FLOAT", "tensorShape": {"dim": [{"size": "24"}]}}}, "dtype": {"type": "DT_FLOAT"}}}, {"name": "block1_2/se/conv1/weights", "op": "Const", "attr": {"dtype": {"type": "DT_FLOAT"}, "value": {"tensor": {"dtype": "DT_FLOAT", "tensorShape": {"dim": [{"size": "1"}, {"size": "1"}, {"size": "24"}, {"size": "96"}]}}}}}, {"name": "block1_2/se/conv1/biases", "op": "Const", "attr": {"dtype": {"type": "DT_FLOAT"}, "value": {"tensor": {"dtype": "DT_FLOAT", "tensorShape": {"dim": [{"size": "96"}]}}}}}, {"name": "block1_2/conv0/weights", "op": "Const", "attr": {"value": {"tensor": {"dtype": "DT_FLOAT", "tensorShape": {"dim": [{"size": "1"}, {"size": "1"}, {"size": "32"}, {"size": "96"}]}}}, "dtype": {"type": "DT_FLOAT"}}}, {"name": "block1_2/conv0/biases", "op": "Const", "attr": {"value": {"tensor": {"dtype": "DT_FLOAT", "tensorShape": {"dim": [{"size": "96"}]}}}, "dtype": {"type": "DT_FLOAT"}}}, {"name": "block1_2/conv1/weights", "op": "Const", "attr": {"dtype": {"type": "DT_FLOAT"}, "value": {"tensor": {"dtype": "DT_FLOAT", "tensorShape": {"dim": [{"size": "3"}, {"size": "3"}, {"size": "96"}, {"size": "1"}]}}}}}, {"name": "block1_2/conv1/biases", "op": "Const", "attr": {"value": {"tensor": {"dtype": "DT_FLOAT", "tensorShape": {"dim": [{"size": "96"}]}}}, "dtype": {"type": "DT_FLOAT"}}}, {"name": "block1_2/conv2/weights", "op": "Const", "attr": {"value": {"tensor": {"dtype": "DT_FLOAT", "tensorShape": {"dim": [{"size": "1"}, {"size": "1"}, {"size": "96"}, {"size": "32"}]}}}, "dtype": {"type": "DT_FLOAT"}}}, {"name": "block1_2/conv2/biases", "op": "Const", "attr": {"dtype": {"type": "DT_FLOAT"}, "value": {"tensor": {"dtype": "DT_FLOAT", "tensorShape": {"dim": [{"size": "32"}]}}}}}, {"name": "ConstantFolding/block1_1/se/sigmoid_recip", "op": "Const", "attr": {"value": {"tensor": {"dtype": "DT_FLOAT", "tensorShape": {}}}, "dtype": {"type": "DT_FLOAT"}}}, {"name": "block1_1/se/pool/reduction_indices", "op": "Const", "attr": {"dtype": {"type": "DT_INT32"}, "value": {"tensor": {"dtype": "DT_INT32", "tensorShape": {"dim": [{"size": "2"}]}}}}}, {"name": "block1_1/se/conv0/weights", "op": "Const", "attr": {"dtype": {"type": "DT_FLOAT"}, "value": {"tensor": {"dtype": "DT_FLOAT", "tensorShape": {"dim": [{"size": "1"}, {"size": "1"}, {"size": "96"}, {"size": "24"}]}}}}}, {"name": "block1_1/se/conv0/biases", "op": "Const", "attr": {"dtype": {"type": "DT_FLOAT"}, "value": {"tensor": {"dtype": "DT_FLOAT", "tensorShape": {"dim": [{"size": "24"}]}}}}}, {"name": "block1_1/se/conv1/weights", "op": "Const", "attr": {"value": {"tensor": {"dtype": "DT_FLOAT", "tensorShape": {"dim": [{"size": "1"}, {"size": "1"}, {"size": "24"}, {"size": "96"}]}}}, "dtype": {"type": "DT_FLOAT"}}}, {"name": "block1_1/se/conv1/biases", "op": "Const", "attr": {"dtype": {"type": "DT_FLOAT"}, "value": {"tensor": {"dtype": "DT_FLOAT", "tensorShape": {"dim": [{"size": "96"}]}}}}}, {"name": "block1_1/conv0/weights", "op": "Const", "attr": {"value": {"tensor": {"dtype": "DT_FLOAT", "tensorShape": {"dim": [{"size": "1"}, {"size": "1"}, {"size": "32"}, {"size": "96"}]}}}, "dtype": {"type": "DT_FLOAT"}}}, {"name": "block1_1/conv0/biases", "op": "Const", "attr": {"value": {"tensor": {"dtype": "DT_FLOAT", "tensorShape": {"dim": [{"size": "96"}]}}}, "dtype": {"type": "DT_FLOAT"}}}, {"name": "block1_1/conv1/weights", "op": "Const", "attr": {"dtype": {"type": "DT_FLOAT"}, "value": {"tensor": {"dtype": "DT_FLOAT", "tensorShape": {"dim": [{"size": "3"}, {"size": "3"}, {"size": "96"}, {"size": "1"}]}}}}}, {"name": "block1_1/conv1/biases", "op": "Const", "attr": {"dtype": {"type": "DT_FLOAT"}, "value": {"tensor": {"dtype": "DT_FLOAT", "tensorShape": {"dim": [{"size": "96"}]}}}}}, {"name": "block1_1/conv2/weights", "op": "Const", "attr": {"dtype": {"type": "DT_FLOAT"}, "value": {"tensor": {"dtype": "DT_FLOAT", "tensorShape": {"dim": [{"size": "1"}, {"size": "1"}, {"size": "96"}, {"size": "32"}]}}}}}, {"name": "block1_1/conv2/biases", "op": "Const", "attr": {"dtype": {"type": "DT_FLOAT"}, "value": {"tensor": {"dtype": "DT_FLOAT", "tensorShape": {"dim": [{"size": "32"}]}}}}}, {"name": "ConstantFolding/block1_0/se/sigmoid_recip", "op": "Const", "attr": {"dtype": {"type": "DT_FLOAT"}, "value": {"tensor": {"dtype": "DT_FLOAT", "tensorShape": {}}}}}, {"name": "block1_0/se/pool/reduction_indices", "op": "Const", "attr": {"dtype": {"type": "DT_INT32"}, "value": {"tensor": {"dtype": "DT_INT32", "tensorShape": {"dim": [{"size": "2"}]}}}}}, {"name": "block1_0/se/conv0/weights", "op": "Const", "attr": {"value": {"tensor": {"dtype": "DT_FLOAT", "tensorShape": {"dim": [{"size": "1"}, {"size": "1"}, {"size": "96"}, {"size": "24"}]}}}, "dtype": {"type": "DT_FLOAT"}}}, {"name": "block1_0/se/conv0/biases", "op": "Const", "attr": {"value": {"tensor": {"dtype": "DT_FLOAT", "tensorShape": {"dim": [{"size": "24"}]}}}, "dtype": {"type": "DT_FLOAT"}}}, {"name": "block1_0/se/conv1/weights", "op": "Const", "attr": {"value": {"tensor": {"dtype": "DT_FLOAT", "tensorShape": {"dim": [{"size": "1"}, {"size": "1"}, {"size": "24"}, {"size": "96"}]}}}, "dtype": {"type": "DT_FLOAT"}}}, {"name": "block1_0/se/conv1/biases", "op": "Const", "attr": {"dtype": {"type": "DT_FLOAT"}, "value": {"tensor": {"dtype": "DT_FLOAT", "tensorShape": {"dim": [{"size": "96"}]}}}}}, {"name": "ConstantFolding/block0_1/se/sigmoid_recip", "op": "Const", "attr": {"value": {"tensor": {"dtype": "DT_FLOAT", "tensorShape": {}}}, "dtype": {"type": "DT_FLOAT"}}}, {"name": "block0_1/se/pool/reduction_indices", "op": "Const", "attr": {"value": {"tensor": {"dtype": "DT_INT32", "tensorShape": {"dim": [{"size": "2"}]}}}, "dtype": {"type": "DT_INT32"}}}, {"name": "block0_1/se/conv0/weights", "op": "Const", "attr": {"dtype": {"type": "DT_FLOAT"}, "value": {"tensor": {"dtype": "DT_FLOAT", "tensorShape": {"dim": [{"size": "1"}, {"size": "1"}, {"size": "40"}, {"size": "10"}]}}}}}, {"name": "block0_1/se/conv0/biases", "op": "Const", "attr": {"value": {"tensor": {"dtype": "DT_FLOAT", "tensorShape": {"dim": [{"size": "10"}]}}}, "dtype": {"type": "DT_FLOAT"}}}, {"name": "block0_1/se/conv1/weights", "op": "Const", "attr": {"value": {"tensor": {"dtype": "DT_FLOAT", "tensorShape": {"dim": [{"size": "1"}, {"size": "1"}, {"size": "10"}, {"size": "40"}]}}}, "dtype": {"type": "DT_FLOAT"}}}, {"name": "block0_1/se/conv1/biases", "op": "Const", "attr": {"dtype": {"type": "DT_FLOAT"}, "value": {"tensor": {"dtype": "DT_FLOAT", "tensorShape": {"dim": [{"size": "40"}]}}}}}, {"name": "block0_1/conv0/weights", "op": "Const", "attr": {"dtype": {"type": "DT_FLOAT"}, "value": {"tensor": {"dtype": "DT_FLOAT", "tensorShape": {"dim": [{"size": "1"}, {"size": "1"}, {"size": "16"}, {"size": "40"}]}}}}}, {"name": "block0_1/conv0/biases", "op": "Const", "attr": {"dtype": {"type": "DT_FLOAT"}, "value": {"tensor": {"dtype": "DT_FLOAT", "tensorShape": {"dim": [{"size": "40"}]}}}}}, {"name": "block0_1/conv1/weights", "op": "Const", "attr": {"dtype": {"type": "DT_FLOAT"}, "value": {"tensor": {"dtype": "DT_FLOAT", "tensorShape": {"dim": [{"size": "3"}, {"size": "3"}, {"size": "40"}, {"size": "1"}]}}}}}, {"name": "block0_1/conv1/biases", "op": "Const", "attr": {"dtype": {"type": "DT_FLOAT"}, "value": {"tensor": {"dtype": "DT_FLOAT", "tensorShape": {"dim": [{"size": "40"}]}}}}}, {"name": "block0_1/conv2/weights", "op": "Const", "attr": {"dtype": {"type": "DT_FLOAT"}, "value": {"tensor": {"dtype": "DT_FLOAT", "tensorShape": {"dim": [{"size": "1"}, {"size": "1"}, {"size": "40"}, {"size": "16"}]}}}}}, {"name": "block0_1/conv2/biases", "op": "Const", "attr": {"dtype": {"type": "DT_FLOAT"}, "value": {"tensor": {"dtype": "DT_FLOAT", "tensorShape": {"dim": [{"size": "16"}]}}}}}, {"name": "ConstantFolding/block0_0/se/sigmoid_recip", "op": "Const", "attr": {"value": {"tensor": {"dtype": "DT_FLOAT", "tensorShape": {}}}, "dtype": {"type": "DT_FLOAT"}}}, {"name": "block0_0/se/pool/reduction_indices", "op": "Const", "attr": {"value": {"tensor": {"dtype": "DT_INT32", "tensorShape": {"dim": [{"size": "2"}]}}}, "dtype": {"type": "DT_INT32"}}}, {"name": "block0_0/se/conv0/weights", "op": "Const", "attr": {"value": {"tensor": {"dtype": "DT_FLOAT", "tensorShape": {"dim": [{"size": "1"}, {"size": "1"}, {"size": "40"}, {"size": "10"}]}}}, "dtype": {"type": "DT_FLOAT"}}}, {"name": "block0_0/se/conv0/biases", "op": "Const", "attr": {"value": {"tensor": {"dtype": "DT_FLOAT", "tensorShape": {"dim": [{"size": "10"}]}}}, "dtype": {"type": "DT_FLOAT"}}}, {"name": "block0_0/se/conv1/weights", "op": "Const", "attr": {"value": {"tensor": {"dtype": "DT_FLOAT", "tensorShape": {"dim": [{"size": "1"}, {"size": "1"}, {"size": "10"}, {"size": "40"}]}}}, "dtype": {"type": "DT_FLOAT"}}}, {"name": "block0_0/se/conv1/biases", "op": "Const", "attr": {"dtype": {"type": "DT_FLOAT"}, "value": {"tensor": {"dtype": "DT_FLOAT", "tensorShape": {"dim": [{"size": "40"}]}}}}}, {"name": "scalar_3", "op": "Const", "attr": {"value": {"tensor": {"dtype": "DT_FLOAT", "tensorShape": {}}}, "dtype": {"type": "DT_FLOAT"}}}, {"name": "data", "op": "Placeholder", "attr": {"shape": {"shape": {"dim": [{"size": "1"}, {"size": "300"}, {"size": "300"}, {"size": "3"}]}}, "dtype": {"type": "DT_FLOAT"}}}, {"name": "mean_value", "op": "Const", "attr": {"dtype": {"type": "DT_FLOAT"}, "value": {"tensor": {"dtype": "DT_FLOAT", "tensorShape": {"dim": [{"size": "1"}]}}}}}, {"name": "conv0/weights", "op": "Const", "attr": {"dtype": {"type": "DT_FLOAT"}, "value": {"tensor": {"dtype": "DT_FLOAT", "tensorShape": {"dim": [{"size": "3"}, {"size": "3"}, {"size": "3"}, {"size": "40"}]}}}}}, {"name": "conv0/biases", "op": "Const", "attr": {"dtype": {"type": "DT_FLOAT"}, "value": {"tensor": {"dtype": "DT_FLOAT", "tensorShape": {"dim": [{"size": "40"}]}}}}}, {"name": "block0_0/conv1/weights", "op": "Const", "attr": {"dtype": {"type": "DT_FLOAT"}, "value": {"tensor": {"dtype": "DT_FLOAT", "tensorShape": {"dim": [{"size": "3"}, {"size": "3"}, {"size": "40"}, {"size": "1"}]}}}}}, {"name": "block0_0/conv1/biases", "op": "Const", "attr": {"dtype": {"type": "DT_FLOAT"}, "value": {"tensor": {"dtype": "DT_FLOAT", "tensorShape": {"dim": [{"size": "40"}]}}}}}, {"name": "block0_0/conv2/weights", "op": "Const", "attr": {"value": {"tensor": {"dtype": "DT_FLOAT", "tensorShape": {"dim": [{"size": "1"}, {"size": "1"}, {"size": "40"}, {"size": "16"}]}}}, "dtype": {"type": "DT_FLOAT"}}}, {"name": "block0_0/conv2/biases", "op": "Const", "attr": {"dtype": {"type": "DT_FLOAT"}, "value": {"tensor": {"dtype": "DT_FLOAT", "tensorShape": {"dim": [{"size": "16"}]}}}}}, {"name": "block1_0/conv0/weights", "op": "Const", "attr": {"value": {"tensor": {"dtype": "DT_FLOAT", "tensorShape": {"dim": [{"size": "1"}, {"size": "1"}, {"size": "16"}, {"size": "96"}]}}}, "dtype": {"type": "DT_FLOAT"}}}, {"name": "block1_0/conv0/biases", "op": "Const", "attr": {"dtype": {"type": "DT_FLOAT"}, "value": {"tensor": {"dtype": "DT_FLOAT", "tensorShape": {"dim": [{"size": "96"}]}}}}}, {"name": "block1_0/conv1/weights", "op": "Const", "attr": {"value": {"tensor": {"dtype": "DT_FLOAT", "tensorShape": {"dim": [{"size": "3"}, {"size": "3"}, {"size": "96"}, {"size": "1"}]}}}, "dtype": {"type": "DT_FLOAT"}}}, {"name": "block1_0/conv1/biases", "op": "Const", "attr": {"dtype": {"type": "DT_FLOAT"}, "value": {"tensor": {"dtype": "DT_FLOAT", "tensorShape": {"dim": [{"size": "96"}]}}}}}, {"name": "block1_0/conv2/weights", "op": "Const", "attr": {"value": {"tensor": {"dtype": "DT_FLOAT", "tensorShape": {"dim": [{"size": "1"}, {"size": "1"}, {"size": "96"}, {"size": "32"}]}}}, "dtype": {"type": "DT_FLOAT"}}}, {"name": "block1_0/conv2/biases", "op": "Const", "attr": {"value": {"tensor": {"dtype": "DT_FLOAT", "tensorShape": {"dim": [{"size": "32"}]}}}, "dtype": {"type": "DT_FLOAT"}}}, {"name": "block2_0/conv0/weights", "op": "Const", "attr": {"dtype": {"type": "DT_FLOAT"}, "value": {"tensor": {"dtype": "DT_FLOAT", "tensorShape": {"dim": [{"size": "1"}, {"size": "1"}, {"size": "32"}, {"size": "192"}]}}}}}, {"name": "block2_0/conv0/biases", "op": "Const", "attr": {"dtype": {"type": "DT_FLOAT"}, "value": {"tensor": {"dtype": "DT_FLOAT", "tensorShape": {"dim": [{"size": "192"}]}}}}}, {"name": "block2_0/conv1/weights", "op": "Const", "attr": {"value": {"tensor": {"dtype": "DT_FLOAT", "tensorShape": {"dim": [{"size": "5"}, {"size": "5"}, {"size": "192"}, {"size": "1"}]}}}, "dtype": {"type": "DT_FLOAT"}}}, {"name": "block2_0/conv1/biases", "op": "Const", "attr": {"dtype": {"type": "DT_FLOAT"}, "value": {"tensor": {"dtype": "DT_FLOAT", "tensorShape": {"dim": [{"size": "192"}]}}}}}, {"name": "block2_0/conv2/weights", "op": "Const", "attr": {"value": {"tensor": {"dtype": "DT_FLOAT", "tensorShape": {"dim": [{"size": "1"}, {"size": "1"}, {"size": "192"}, {"size": "48"}]}}}, "dtype": {"type": "DT_FLOAT"}}}, {"name": "block2_0/conv2/biases", "op": "Const", "attr": {"value": {"tensor": {"dtype": "DT_FLOAT", "tensorShape": {"dim": [{"size": "48"}]}}}, "dtype": {"type": "DT_FLOAT"}}}, {"name": "block3_0/conv0/weights", "op": "Const", "attr": {"value": {"tensor": {"dtype": "DT_FLOAT", "tensorShape": {"dim": [{"size": "1"}, {"size": "1"}, {"size": "48"}, {"size": "288"}]}}}, "dtype": {"type": "DT_FLOAT"}}}, {"name": "block3_0/conv0/biases", "op": "Const", "attr": {"dtype": {"type": "DT_FLOAT"}, "value": {"tensor": {"dtype": "DT_FLOAT", "tensorShape": {"dim": [{"size": "288"}]}}}}}, {"name": "block3_0/conv1/weights", "op": "Const", "attr": {"value": {"tensor": {"dtype": "DT_FLOAT", "tensorShape": {"dim": [{"size": "3"}, {"size": "3"}, {"size": "288"}, {"size": "1"}]}}}, "dtype": {"type": "DT_FLOAT"}}}, {"name": "block3_0/conv1/biases", "op": "Const", "attr": {"value": {"tensor": {"dtype": "DT_FLOAT", "tensorShape": {"dim": [{"size": "288"}]}}}, "dtype": {"type": "DT_FLOAT"}}}, {"name": "block3_0/conv2/weights", "op": "Const", "attr": {"value": {"tensor": {"dtype": "DT_FLOAT", "tensorShape": {"dim": [{"size": "1"}, {"size": "1"}, {"size": "288"}, {"size": "96"}]}}}, "dtype": {"type": "DT_FLOAT"}}}, {"name": "block3_0/conv2/biases", "op": "Const", "attr": {"value": {"tensor": {"dtype": "DT_FLOAT", "tensorShape": {"dim": [{"size": "96"}]}}}, "dtype": {"type": "DT_FLOAT"}}}, {"name": "block4_0/conv0/weights", "op": "Const", "attr": {"value": {"tensor": {"dtype": "DT_FLOAT", "tensorShape": {"dim": [{"size": "1"}, {"size": "1"}, {"size": "96"}, {"size": "576"}]}}}, "dtype": {"type": "DT_FLOAT"}}}, {"name": "block4_0/conv0/biases", "op": "Const", "attr": {"value": {"tensor": {"dtype": "DT_FLOAT", "tensorShape": {"dim": [{"size": "576"}]}}}, "dtype": {"type": "DT_FLOAT"}}}, {"name": "block4_0/conv1/weights", "op": "Const", "attr": {"dtype": {"type": "DT_FLOAT"}, "value": {"tensor": {"dtype": "DT_FLOAT", "tensorShape": {"dim": [{"size": "5"}, {"size": "5"}, {"size": "576"}, {"size": "1"}]}}}}}, {"name": "block4_0/conv1/biases", "op": "Const", "attr": {"value": {"tensor": {"dtype": "DT_FLOAT", "tensorShape": {"dim": [{"size": "576"}]}}}, "dtype": {"type": "DT_FLOAT"}}}, {"name": "block4_0/conv2/weights", "op": "Const", "attr": {"value": {"tensor": {"dtype": "DT_FLOAT", "tensorShape": {"dim": [{"size": "1"}, {"size": "1"}, {"size": "576"}, {"size": "136"}]}}}, "dtype": {"type": "DT_FLOAT"}}}, {"name": "block4_0/conv2/biases", "op": "Const", "attr": {"dtype": {"type": "DT_FLOAT"}, "value": {"tensor": {"dtype": "DT_FLOAT", "tensorShape": {"dim": [{"size": "136"}]}}}}}, {"name": "block5_0/conv0/weights", "op": "Const", "attr": {"dtype": {"type": "DT_FLOAT"}, "value": {"tensor": {"dtype": "DT_FLOAT", "tensorShape": {"dim": [{"size": "1"}, {"size": "1"}, {"size": "136"}, {"size": "816"}]}}}}}, {"name": "block5_0/conv0/biases", "op": "Const", "attr": {"dtype": {"type": "DT_FLOAT"}, "value": {"tensor": {"dtype": "DT_FLOAT", "tensorShape": {"dim": [{"size": "816"}]}}}}}, {"name": "Const_1", "op": "Const", "attr": {"dtype": {"type": "DT_INT32"}, "value": {"tensor": {"dtype": "DT_INT32", "tensorShape": {"dim": [{"size": "4"}, {"size": "2"}]}}}}}, {"name": "block5_0/conv1/weights", "op": "Const", "attr": {"value": {"tensor": {"dtype": "DT_FLOAT", "tensorShape": {"dim": [{"size": "5"}, {"size": "5"}, {"size": "816"}, {"size": "1"}]}}}, "dtype": {"type": "DT_FLOAT"}}}, {"name": "block5_0/conv1/biases", "op": "Const", "attr": {"dtype": {"type": "DT_FLOAT"}, "value": {"tensor": {"dtype": "DT_FLOAT", "tensorShape": {"dim": [{"size": "816"}]}}}}}, {"name": "block5_0/conv2/weights", "op": "Const", "attr": {"dtype": {"type": "DT_FLOAT"}, "value": {"tensor": {"dtype": "DT_FLOAT", "tensorShape": {"dim": [{"size": "1"}, {"size": "1"}, {"size": "816"}, {"size": "232"}]}}}}}, {"name": "block5_0/conv2/biases", "op": "Const", "attr": {"value": {"tensor": {"dtype": "DT_FLOAT", "tensorShape": {"dim": [{"size": "232"}]}}}, "dtype": {"type": "DT_FLOAT"}}}, {"name": "block6_0/conv0/weights", "op": "Const", "attr": {"value": {"tensor": {"dtype": "DT_FLOAT", "tensorShape": {"dim": [{"size": "1"}, {"size": "1"}, {"size": "232"}, {"size": "1392"}]}}}, "dtype": {"type": "DT_FLOAT"}}}, {"name": "block6_0/conv0/biases", "op": "Const", "attr": {"value": {"tensor": {"dtype": "DT_FLOAT", "tensorShape": {"dim": [{"size": "1392"}]}}}, "dtype": {"type": "DT_FLOAT"}}}, {"name": "Const", "op": "Const", "attr": {"value": {"tensor": {"dtype": "DT_INT32", "tensorShape": {"dim": [{"size": "4"}, {"size": "2"}]}}}, "dtype": {"type": "DT_INT32"}}}, {"name": "conv1/weights", "op": "Const", "attr": {"value": {"tensor": {"dtype": "DT_FLOAT", "tensorShape": {"dim": [{"size": "1"}, {"size": "1"}, {"size": "384"}, {"size": "1536"}]}}}, "dtype": {"type": "DT_FLOAT"}}}, {"name": "classifier/biases", "op": "Const", "attr": {"dtype": {"type": "DT_FLOAT"}, "value": {"tensor": {"dtype": "DT_FLOAT", "tensorShape": {"dim": [{"size": "2"}]}}}}}, {"name": "conv1/biases", "op": "Const", "attr": {"value": {"tensor": {"dtype": "DT_FLOAT", "tensorShape": {"dim": [{"size": "1536"}]}}}, "dtype": {"type": "DT_FLOAT"}}}, {"name": "block6_0/conv2/weights", "op": "Const", "attr": {"dtype": {"type": "DT_FLOAT"}, "value": {"tensor": {"dtype": "DT_FLOAT", "tensorShape": {"dim": [{"size": "1"}, {"size": "1"}, {"size": "1392"}, {"size": "384"}]}}}}}, {"name": "block6_0/conv2/biases", "op": "Const", "attr": {"value": {"tensor": {"dtype": "DT_FLOAT", "tensorShape": {"dim": [{"size": "384"}]}}}, "dtype": {"type": "DT_FLOAT"}}}, {"name": "pool/reduction_indices", "op": "Const", "attr": {"dtype": {"type": "DT_INT32"}, "value": {"tensor": {"dtype": "DT_INT32", "tensorShape": {"dim": [{"size": "2"}]}}}}}, {"name": "classifier/weights", "op": "Const", "attr": {"dtype": {"type": "DT_FLOAT"}, "value": {"tensor": {"dtype": "DT_FLOAT", "tensorShape": {"dim": [{"size": "1536"}, {"size": "2"}]}}}}}, {"name": "block6_0/conv1/weights", "op": "Const", "attr": {"dtype": {"type": "DT_FLOAT"}, "value": {"tensor": {"dtype": "DT_FLOAT", "tensorShape": {"dim": [{"size": "3"}, {"size": "3"}, {"size": "1392"}, {"size": "1"}]}}}}}, {"name": "block6_0/conv1/biases", "op": "Const", "attr": {"dtype": {"type": "DT_FLOAT"}, "value": {"tensor": {"dtype": "DT_FLOAT", "tensorShape": {"dim": [{"size": "1392"}]}}}}}, {"name": "mean_subtraction", "op": "Add", "input": ["data", "mean_value"], "attr": {"T": {"type": "DT_FLOAT"}}}, {"name": "Pad", "op": "Pad", "input": ["mean_subtraction", "Const"], "attr": {"T": {"type": "DT_FLOAT"}, "Tpaddings": {"type": "DT_INT32"}}}, {"name": "conv0/relu6", "op": "_FusedConv2D", "input": ["Pad", "conv0/weights", "conv0/biases"], "device": "/device:CPU:0", "attr": {"padding": {"s": "VkFMSUQ="}, "strides": {"list": {"i": ["1", "2", "2", "1"]}}, "use_cudnn_on_gpu": {"b": true}, "data_format": {"s": "TkhXQw=="}, "fused_ops": {"list": {"s": ["Qmlhc0FkZA==", "UmVsdTY="]}}, "num_args": {"i": "1"}, "epsilon": {"f": 0.0}, "dilations": {"list": {"i": ["1", "1", "1", "1"]}}, "explicit_paddings": {"list": {}}, "T": {"type": "DT_FLOAT"}}}, {"name": "Pad_1", "op": "Pad", "input": ["conv0/relu6", "Const"], "attr": {"T": {"type": "DT_FLOAT"}, "Tpaddings": {"type": "DT_INT32"}}}, {"name": "block0_0/conv1/conv2d", "op": "FusedDepthwiseConv2dNative", "input": ["Pad_1", "block0_0/conv1/weights", "block0_0/conv1/biases"], "attr": {"padding": {"s": "VkFMSUQ="}, "strides": {"list": {"i": ["1", "1", "1", "1"]}}, "data_format": {"s": "TkhXQw=="}, "explicit_paddings": {"list": {}}, "dilations": {"list": {"i": ["1", "1", "1", "1"]}}, "fused_ops": {"list": {"s": ["Qmlhc0FkZA==", "UmVsdTY="]}}, "T": {"type": "DT_FLOAT"}, "num_args": {"i": "1"}}}, {"name": "block0_0/se/pool", "op": "Mean", "input": ["block0_0/conv1/conv2d", "block0_0/se/pool/reduction_indices"], "attr": {"Tidx": {"type": "DT_INT32"}, "T": {"type": "DT_FLOAT"}, "keep_dims": {"b": true}}}, {"name": "block0_0/se/conv0/relu6", "op": "_FusedConv2D", "input": ["block0_0/se/pool", "block0_0/se/conv0/weights", "block0_0/se/conv0/biases"], "device": "/device:CPU:0", "attr": {"explicit_paddings": {"list": {}}, "num_args": {"i": "1"}, "strides": {"list": {"i": ["1", "1", "1", "1"]}}, "use_cudnn_on_gpu": {"b": true}, "dilations": {"list": {"i": ["1", "1", "1", "1"]}}, "padding": {"s": "VkFMSUQ="}, "fused_ops": {"list": {"s": ["Qmlhc0FkZA==", "UmVsdTY="]}}, "data_format": {"s": "TkhXQw=="}, "epsilon": {"f": 0.0}, "T": {"type": "DT_FLOAT"}}}, {"name": "block0_0/se/conv1/biasadd", "op": "_FusedConv2D", "input": ["block0_0/se/conv0/relu6", "block0_0/se/conv1/weights", "block0_0/se/conv1/biases"], "device": "/device:CPU:0", "attr": {"num_args": {"i": "1"}, "explicit_paddings": {"list": {}}, "fused_ops": {"list": {"s": ["Qmlhc0FkZA=="]}}, "epsilon": {"f": 0.0}, "use_cudnn_on_gpu": {"b": true}, "data_format": {"s": "TkhXQw=="}, "dilations": {"list": {"i": ["1", "1", "1", "1"]}}, "T": {"type": "DT_FLOAT"}, "padding": {"s": "VkFMSUQ="}, "strides": {"list": {"i": ["1", "1", "1", "1"]}}}}, {"name": "block0_0/se/sigmoid/add", "op": "Add", "input": ["block0_0/se/conv1/biasadd", "scalar_3"], "attr": {"T": {"type": "DT_FLOAT"}}}, {"name": "block0_0/se/sigmoid/relu6", "op": "Relu6", "input": ["block0_0/se/sigmoid/add"], "attr": {"T": {"type": "DT_FLOAT"}}}, {"name": "block0_0/se/sigmoid", "op": "Mul", "input": ["ConstantFolding/block0_0/se/sigmoid_recip", "block0_0/se/sigmoid/relu6"], "attr": {"_grappler_ArithmeticOptimizer_MinimizeBroadcasts": {"b": true}, "T": {"type": "DT_FLOAT"}}}, {"name": "block0_0/se", "op": "Mul", "input": ["block0_0/se/sigmoid", "block0_0/conv1/conv2d"], "attr": {"_grappler_ArithmeticOptimizer_MinimizeBroadcasts": {"b": true}, "T": {"type": "DT_FLOAT"}}}, {"name": "block0_0/conv2/biasadd", "op": "_FusedConv2D", "input": ["block0_0/se", "block0_0/conv2/weights", "block0_0/conv2/biases"], "device": "/device:CPU:0", "attr": {"dilations": {"list": {"i": ["1", "1", "1", "1"]}}, "strides": {"list": {"i": ["1", "1", "1", "1"]}}, "padding": {"s": "VkFMSUQ="}, "explicit_paddings": {"list": {}}, "fused_ops": {"list": {"s": ["Qmlhc0FkZA=="]}}, "use_cudnn_on_gpu": {"b": true}, "T": {"type": "DT_FLOAT"}, "num_args": {"i": "1"}, "data_format": {"s": "TkhXQw=="}, "epsilon": {"f": 0.0}}}, {"name": "block0_1/conv0/relu6", "op": "_FusedConv2D", "input": ["block0_0/conv2/biasadd", "block0_1/conv0/weights", "block0_1/conv0/biases"], "device": "/device:CPU:0", "attr": {"strides": {"list": {"i": ["1", "1", "1", "1"]}}, "num_args": {"i": "1"}, "T": {"type": "DT_FLOAT"}, "padding": {"s": "VkFMSUQ="}, "data_format": {"s": "TkhXQw=="}, "fused_ops": {"list": {"s": ["Qmlhc0FkZA==", "UmVsdTY="]}}, "use_cudnn_on_gpu": {"b": true}, "explicit_paddings": {"list": {}}, "dilations": {"list": {"i": ["1", "1", "1", "1"]}}, "epsilon": {"f": 0.0}}}, {"name": "Pad_2", "op": "Pad", "input": ["block0_1/conv0/relu6", "Const"], "attr": {"T": {"type": "DT_FLOAT"}, "Tpaddings": {"type": "DT_INT32"}}}, {"name": "block0_1/conv1/conv2d", "op": "FusedDepthwiseConv2dNative", "input": ["Pad_2", "block0_1/conv1/weights", "block0_1/conv1/biases"], "attr": {"explicit_paddings": {"list": {}}, "data_format": {"s": "TkhXQw=="}, "T": {"type": "DT_FLOAT"}, "fused_ops": {"list": {"s": ["Qmlhc0FkZA==", "UmVsdTY="]}}, "dilations": {"list": {"i": ["1", "1", "1", "1"]}}, "num_args": {"i": "1"}, "padding": {"s": "VkFMSUQ="}, "strides": {"list": {"i": ["1", "1", "1", "1"]}}}}, {"name": "block0_1/se/pool", "op": "Mean", "input": ["block0_1/conv1/conv2d", "block0_1/se/pool/reduction_indices"], "attr": {"T": {"type": "DT_FLOAT"}, "Tidx": {"type": "DT_INT32"}, "keep_dims": {"b": true}}}, {"name": "block0_1/se/conv0/relu6", "op": "_FusedConv2D", "input": ["block0_1/se/pool", "block0_1/se/conv0/weights", "block0_1/se/conv0/biases"], "device": "/device:CPU:0", "attr": {"strides": {"list": {"i": ["1", "1", "1", "1"]}}, "data_format": {"s": "TkhXQw=="}, "padding": {"s": "VkFMSUQ="}, "epsilon": {"f": 0.0}, "explicit_paddings": {"list": {}}, "T": {"type": "DT_FLOAT"}, "fused_ops": {"list": {"s": ["Qmlhc0FkZA==", "UmVsdTY="]}}, "dilations": {"list": {"i": ["1", "1", "1", "1"]}}, "use_cudnn_on_gpu": {"b": true}, "num_args": {"i": "1"}}}, {"name": "block0_1/se/conv1/biasadd", "op": "_FusedConv2D", "input": ["block0_1/se/conv0/relu6", "block0_1/se/conv1/weights", "block0_1/se/conv1/biases"], "device": "/device:CPU:0", "attr": {"num_args": {"i": "1"}, "explicit_paddings": {"list": {}}, "dilations": {"list": {"i": ["1", "1", "1", "1"]}}, "strides": {"list": {"i": ["1", "1", "1", "1"]}}, "use_cudnn_on_gpu": {"b": true}, "fused_ops": {"list": {"s": ["Qmlhc0FkZA=="]}}, "epsilon": {"f": 0.0}, "data_format": {"s": "TkhXQw=="}, "T": {"type": "DT_FLOAT"}, "padding": {"s": "VkFMSUQ="}}}, {"name": "block0_1/se/sigmoid/add", "op": "Add", "input": ["block0_1/se/conv1/biasadd", "scalar_3"], "attr": {"T": {"type": "DT_FLOAT"}}}, {"name": "block0_1/se/sigmoid/relu6", "op": "Relu6", "input": ["block0_1/se/sigmoid/add"], "attr": {"T": {"type": "DT_FLOAT"}}}, {"name": "block0_1/se/sigmoid", "op": "Mul", "input": ["ConstantFolding/block0_1/se/sigmoid_recip", "block0_1/se/sigmoid/relu6"], "attr": {"T": {"type": "DT_FLOAT"}, "_grappler_ArithmeticOptimizer_MinimizeBroadcasts": {"b": true}}}, {"name": "block0_1/se", "op": "Mul", "input": ["block0_1/se/sigmoid", "block0_1/conv1/conv2d"], "attr": {"T": {"type": "DT_FLOAT"}, "_grappler_ArithmeticOptimizer_MinimizeBroadcasts": {"b": true}}}, {"name": "block0_1/conv2/biasadd", "op": "_FusedConv2D", "input": ["block0_1/se", "block0_1/conv2/weights", "block0_1/conv2/biases"], "device": "/device:CPU:0", "attr": {"dilations": {"list": {"i": ["1", "1", "1", "1"]}}, "T": {"type": "DT_FLOAT"}, "strides": {"list": {"i": ["1", "1", "1", "1"]}}, "num_args": {"i": "1"}, "padding": {"s": "VkFMSUQ="}, "epsilon": {"f": 0.0}, "use_cudnn_on_gpu": {"b": true}, "explicit_paddings": {"list": {}}, "data_format": {"s": "TkhXQw=="}, "fused_ops": {"list": {"s": ["Qmlhc0FkZA=="]}}}}, {"name": "block0_1/add", "op": "Add", "input": ["block0_1/conv2/biasadd", "block0_0/conv2/biasadd"], "attr": {"T": {"type": "DT_FLOAT"}}}, {"name": "block1_0/conv0/relu6", "op": "_FusedConv2D", "input": ["block0_1/add", "block1_0/conv0/weights", "block1_0/conv0/biases"], "device": "/device:CPU:0", "attr": {"explicit_paddings": {"list": {}}, "num_args": {"i": "1"}, "dilations": {"list": {"i": ["1", "1", "1", "1"]}}, "strides": {"list": {"i": ["1", "1", "1", "1"]}}, "fused_ops": {"list": {"s": ["Qmlhc0FkZA==", "UmVsdTY="]}}, "use_cudnn_on_gpu": {"b": true}, "epsilon": {"f": 0.0}, "padding": {"s": "VkFMSUQ="}, "data_format": {"s": "TkhXQw=="}, "T": {"type": "DT_FLOAT"}}}, {"name": "Pad_3", "op": "Pad", "input": ["block1_0/conv0/relu6", "Const"], "attr": {"T": {"type": "DT_FLOAT"}, "Tpaddings": {"type": "DT_INT32"}}}, {"name": "block1_0/conv1/conv2d", "op": "FusedDepthwiseConv2dNative", "input": ["Pad_3", "block1_0/conv1/weights", "block1_0/conv1/biases"], "attr": {"T": {"type": "DT_FLOAT"}, "num_args": {"i": "1"}, "padding": {"s": "VkFMSUQ="}, "fused_ops": {"list": {"s": ["Qmlhc0FkZA==", "UmVsdTY="]}}, "dilations": {"list": {"i": ["1", "1", "1", "1"]}}, "strides": {"list": {"i": ["1", "2", "2", "1"]}}, "explicit_paddings": {"list": {}}, "data_format": {"s": "TkhXQw=="}}}, {"name": "block1_0/se/pool", "op": "Mean", "input": ["block1_0/conv1/conv2d", "block1_0/se/pool/reduction_indices"], "attr": {"keep_dims": {"b": true}, "T": {"type": "DT_FLOAT"}, "Tidx": {"type": "DT_INT32"}}}, {"name": "block1_0/se/conv0/relu6", "op": "_FusedConv2D", "input": ["block1_0/se/pool", "block1_0/se/conv0/weights", "block1_0/se/conv0/biases"], "device": "/device:CPU:0", "attr": {"dilations": {"list": {"i": ["1", "1", "1", "1"]}}, "num_args": {"i": "1"}, "fused_ops": {"list": {"s": ["Qmlhc0FkZA==", "UmVsdTY="]}}, "data_format": {"s": "TkhXQw=="}, "padding": {"s": "VkFMSUQ="}, "epsilon": {"f": 0.0}, "use_cudnn_on_gpu": {"b": true}, "explicit_paddings": {"list": {}}, "T": {"type": "DT_FLOAT"}, "strides": {"list": {"i": ["1", "1", "1", "1"]}}}}, {"name": "block1_0/se/conv1/biasadd", "op": "_FusedConv2D", "input": ["block1_0/se/conv0/relu6", "block1_0/se/conv1/weights", "block1_0/se/conv1/biases"], "device": "/device:CPU:0", "attr": {"dilations": {"list": {"i": ["1", "1", "1", "1"]}}, "epsilon": {"f": 0.0}, "num_args": {"i": "1"}, "T": {"type": "DT_FLOAT"}, "padding": {"s": "VkFMSUQ="}, "strides": {"list": {"i": ["1", "1", "1", "1"]}}, "explicit_paddings": {"list": {}}, "use_cudnn_on_gpu": {"b": true}, "fused_ops": {"list": {"s": ["Qmlhc0FkZA=="]}}, "data_format": {"s": "TkhXQw=="}}}, {"name": "block1_0/se/sigmoid/add", "op": "Add", "input": ["block1_0/se/conv1/biasadd", "scalar_3"], "attr": {"T": {"type": "DT_FLOAT"}}}, {"name": "block1_0/se/sigmoid/relu6", "op": "Relu6", "input": ["block1_0/se/sigmoid/add"], "attr": {"T": {"type": "DT_FLOAT"}}}, {"name": "block1_0/se/sigmoid", "op": "Mul", "input": ["ConstantFolding/block1_0/se/sigmoid_recip", "block1_0/se/sigmoid/relu6"], "attr": {"T": {"type": "DT_FLOAT"}, "_grappler_ArithmeticOptimizer_MinimizeBroadcasts": {"b": true}}}, {"name": "block1_0/se", "op": "Mul", "input": ["block1_0/se/sigmoid", "block1_0/conv1/conv2d"], "attr": {"T": {"type": "DT_FLOAT"}, "_grappler_ArithmeticOptimizer_MinimizeBroadcasts": {"b": true}}}, {"name": "block1_0/conv2/biasadd", "op": "_FusedConv2D", "input": ["block1_0/se", "block1_0/conv2/weights", "block1_0/conv2/biases"], "device": "/device:CPU:0", "attr": {"num_args": {"i": "1"}, "data_format": {"s": "TkhXQw=="}, "explicit_paddings": {"list": {}}, "strides": {"list": {"i": ["1", "1", "1", "1"]}}, "fused_ops": {"list": {"s": ["Qmlhc0FkZA=="]}}, "padding": {"s": "VkFMSUQ="}, "use_cudnn_on_gpu": {"b": true}, "epsilon": {"f": 0.0}, "dilations": {"list": {"i": ["1", "1", "1", "1"]}}, "T": {"type": "DT_FLOAT"}}}, {"name": "block1_1/conv0/relu6", "op": "_FusedConv2D", "input": ["block1_0/conv2/biasadd", "block1_1/conv0/weights", "block1_1/conv0/biases"], "device": "/device:CPU:0", "attr": {"strides": {"list": {"i": ["1", "1", "1", "1"]}}, "dilations": {"list": {"i": ["1", "1", "1", "1"]}}, "use_cudnn_on_gpu": {"b": true}, "T": {"type": "DT_FLOAT"}, "data_format": {"s": "TkhXQw=="}, "padding": {"s": "VkFMSUQ="}, "fused_ops": {"list": {"s": ["Qmlhc0FkZA==", "UmVsdTY="]}}, "num_args": {"i": "1"}, "explicit_paddings": {"list": {}}, "epsilon": {"f": 0.0}}}, {"name": "Pad_4", "op": "Pad", "input": ["block1_1/conv0/relu6", "Const"], "attr": {"Tpaddings": {"type": "DT_INT32"}, "T": {"type": "DT_FLOAT"}}}, {"name": "block1_1/conv1/conv2d", "op": "FusedDepthwiseConv2dNative", "input": ["Pad_4", "block1_1/conv1/weights", "block1_1/conv1/biases"], "attr": {"dilations": {"list": {"i": ["1", "1", "1", "1"]}}, "strides": {"list": {"i": ["1", "1", "1", "1"]}}, "T": {"type": "DT_FLOAT"}, "fused_ops": {"list": {"s": ["Qmlhc0FkZA==", "UmVsdTY="]}}, "explicit_paddings": {"list": {}}, "padding": {"s": "VkFMSUQ="}, "num_args": {"i": "1"}, "data_format": {"s": "TkhXQw=="}}}, {"name": "block1_1/se/pool", "op": "Mean", "input": ["block1_1/conv1/conv2d", "block1_1/se/pool/reduction_indices"], "attr": {"Tidx": {"type": "DT_INT32"}, "T": {"type": "DT_FLOAT"}, "keep_dims": {"b": true}}}, {"name": "block1_1/se/conv0/relu6", "op": "_FusedConv2D", "input": ["block1_1/se/pool", "block1_1/se/conv0/weights", "block1_1/se/conv0/biases"], "device": "/device:CPU:0", "attr": {"data_format": {"s": "TkhXQw=="}, "epsilon": {"f": 0.0}, "dilations": {"list": {"i": ["1", "1", "1", "1"]}}, "num_args": {"i": "1"}, "use_cudnn_on_gpu": {"b": true}, "padding": {"s": "VkFMSUQ="}, "explicit_paddings": {"list": {}}, "fused_ops": {"list": {"s": ["Qmlhc0FkZA==", "UmVsdTY="]}}, "T": {"type": "DT_FLOAT"}, "strides": {"list": {"i": ["1", "1", "1", "1"]}}}}, {"name": "block1_1/se/conv1/biasadd", "op": "_FusedConv2D", "input": ["block1_1/se/conv0/relu6", "block1_1/se/conv1/weights", "block1_1/se/conv1/biases"], "device": "/device:CPU:0", "attr": {"dilations": {"list": {"i": ["1", "1", "1", "1"]}}, "T": {"type": "DT_FLOAT"}, "strides": {"list": {"i": ["1", "1", "1", "1"]}}, "num_args": {"i": "1"}, "explicit_paddings": {"list": {}}, "fused_ops": {"list": {"s": ["Qmlhc0FkZA=="]}}, "data_format": {"s": "TkhXQw=="}, "padding": {"s": "VkFMSUQ="}, "epsilon": {"f": 0.0}, "use_cudnn_on_gpu": {"b": true}}}, {"name": "block1_1/se/sigmoid/add", "op": "Add", "input": ["block1_1/se/conv1/biasadd", "scalar_3"], "attr": {"T": {"type": "DT_FLOAT"}}}, {"name": "block1_1/se/sigmoid/relu6", "op": "Relu6", "input": ["block1_1/se/sigmoid/add"], "attr": {"T": {"type": "DT_FLOAT"}}}, {"name": "block1_1/se/sigmoid", "op": "Mul", "input": ["ConstantFolding/block1_1/se/sigmoid_recip", "block1_1/se/sigmoid/relu6"], "attr": {"_grappler_ArithmeticOptimizer_MinimizeBroadcasts": {"b": true}, "T": {"type": "DT_FLOAT"}}}, {"name": "block1_1/se", "op": "Mul", "input": ["block1_1/se/sigmoid", "block1_1/conv1/conv2d"], "attr": {"T": {"type": "DT_FLOAT"}, "_grappler_ArithmeticOptimizer_MinimizeBroadcasts": {"b": true}}}, {"name": "block1_1/conv2/biasadd", "op": "_FusedConv2D", "input": ["block1_1/se", "block1_1/conv2/weights", "block1_1/conv2/biases"], "device": "/device:CPU:0", "attr": {"epsilon": {"f": 0.0}, "explicit_paddings": {"list": {}}, "fused_ops": {"list": {"s": ["Qmlhc0FkZA=="]}}, "dilations": {"list": {"i": ["1", "1", "1", "1"]}}, "use_cudnn_on_gpu": {"b": true}, "strides": {"list": {"i": ["1", "1", "1", "1"]}}, "T": {"type": "DT_FLOAT"}, "padding": {"s": "VkFMSUQ="}, "data_format": {"s": "TkhXQw=="}, "num_args": {"i": "1"}}}, {"name": "block1_1/add", "op": "Add", "input": ["block1_1/conv2/biasadd", "block1_0/conv2/biasadd"], "attr": {"T": {"type": "DT_FLOAT"}}}, {"name": "block1_2/conv0/relu6", "op": "_FusedConv2D", "input": ["block1_1/add", "block1_2/conv0/weights", "block1_2/conv0/biases"], "device": "/device:CPU:0", "attr": {"T": {"type": "DT_FLOAT"}, "use_cudnn_on_gpu": {"b": true}, "fused_ops": {"list": {"s": ["Qmlhc0FkZA==", "UmVsdTY="]}}, "padding": {"s": "VkFMSUQ="}, "explicit_paddings": {"list": {}}, "data_format": {"s": "TkhXQw=="}, "num_args": {"i": "1"}, "dilations": {"list": {"i": ["1", "1", "1", "1"]}}, "epsilon": {"f": 0.0}, "strides": {"list": {"i": ["1", "1", "1", "1"]}}}}, {"name": "Pad_5", "op": "Pad", "input": ["block1_2/conv0/relu6", "Const"], "attr": {"Tpaddings": {"type": "DT_INT32"}, "T": {"type": "DT_FLOAT"}}}, {"name": "block1_2/conv1/conv2d", "op": "FusedDepthwiseConv2dNative", "input": ["Pad_5", "block1_2/conv1/weights", "block1_2/conv1/biases"], "attr": {"num_args": {"i": "1"}, "padding": {"s": "VkFMSUQ="}, "dilations": {"list": {"i": ["1", "1", "1", "1"]}}, "fused_ops": {"list": {"s": ["Qmlhc0FkZA==", "UmVsdTY="]}}, "data_format": {"s": "TkhXQw=="}, "T": {"type": "DT_FLOAT"}, "explicit_paddings": {"list": {}}, "strides": {"list": {"i": ["1", "1", "1", "1"]}}}}, {"name": "block1_2/se/pool", "op": "Mean", "input": ["block1_2/conv1/conv2d", "block1_2/se/pool/reduction_indices"], "attr": {"T": {"type": "DT_FLOAT"}, "Tidx": {"type": "DT_INT32"}, "keep_dims": {"b": true}}}, {"name": "block1_2/se/conv0/relu6", "op": "_FusedConv2D", "input": ["block1_2/se/pool", "block1_2/se/conv0/weights", "block1_2/se/conv0/biases"], "device": "/device:CPU:0", "attr": {"padding": {"s": "VkFMSUQ="}, "T": {"type": "DT_FLOAT"}, "fused_ops": {"list": {"s": ["Qmlhc0FkZA==", "UmVsdTY="]}}, "num_args": {"i": "1"}, "use_cudnn_on_gpu": {"b": true}, "explicit_paddings": {"list": {}}, "dilations": {"list": {"i": ["1", "1", "1", "1"]}}, "data_format": {"s": "TkhXQw=="}, "epsilon": {"f": 0.0}, "strides": {"list": {"i": ["1", "1", "1", "1"]}}}}, {"name": "block1_2/se/conv1/biasadd", "op": "_FusedConv2D", "input": ["block1_2/se/conv0/relu6", "block1_2/se/conv1/weights", "block1_2/se/conv1/biases"], "device": "/device:CPU:0", "attr": {"padding": {"s": "VkFMSUQ="}, "strides": {"list": {"i": ["1", "1", "1", "1"]}}, "use_cudnn_on_gpu": {"b": true}, "epsilon": {"f": 0.0}, "T": {"type": "DT_FLOAT"}, "dilations": {"list": {"i": ["1", "1", "1", "1"]}}, "data_format": {"s": "TkhXQw=="}, "num_args": {"i": "1"}, "fused_ops": {"list": {"s": ["Qmlhc0FkZA=="]}}, "explicit_paddings": {"list": {}}}}, {"name": "block1_2/se/sigmoid/add", "op": "Add", "input": ["block1_2/se/conv1/biasadd", "scalar_3"], "attr": {"T": {"type": "DT_FLOAT"}}}, {"name": "block1_2/se/sigmoid/relu6", "op": "Relu6", "input": ["block1_2/se/sigmoid/add"], "attr": {"T": {"type": "DT_FLOAT"}}}, {"name": "block1_2/se/sigmoid", "op": "Mul", "input": ["ConstantFolding/block1_2/se/sigmoid_recip", "block1_2/se/sigmoid/relu6"], "attr": {"T": {"type": "DT_FLOAT"}, "_grappler_ArithmeticOptimizer_MinimizeBroadcasts": {"b": true}}}, {"name": "block1_2/se", "op": "Mul", "input": ["block1_2/se/sigmoid", "block1_2/conv1/conv2d"], "attr": {"T": {"type": "DT_FLOAT"}, "_grappler_ArithmeticOptimizer_MinimizeBroadcasts": {"b": true}}}, {"name": "block1_2/conv2/biasadd", "op": "_FusedConv2D", "input": ["block1_2/se", "block1_2/conv2/weights", "block1_2/conv2/biases"], "device": "/device:CPU:0", "attr": {"num_args": {"i": "1"}, "use_cudnn_on_gpu": {"b": true}, "explicit_paddings": {"list": {}}, "dilations": {"list": {"i": ["1", "1", "1", "1"]}}, "epsilon": {"f": 0.0}, "data_format": {"s": "TkhXQw=="}, "T": {"type": "DT_FLOAT"}, "strides": {"list": {"i": ["1", "1", "1", "1"]}}, "padding": {"s": "VkFMSUQ="}, "fused_ops": {"list": {"s": ["Qmlhc0FkZA=="]}}}}, {"name": "block1_2/add", "op": "Add", "input": ["block1_2/conv2/biasadd", "block1_1/add"], "attr": {"T": {"type": "DT_FLOAT"}}}, {"name": "block2_0/conv0/relu6", "op": "_FusedConv2D", "input": ["block1_2/add", "block2_0/conv0/weights", "block2_0/conv0/biases"], "device": "/device:CPU:0", "attr": {"epsilon": {"f": 0.0}, "num_args": {"i": "1"}, "fused_ops": {"list": {"s": ["Qmlhc0FkZA==", "UmVsdTY="]}}, "T": {"type": "DT_FLOAT"}, "strides": {"list": {"i": ["1", "1", "1", "1"]}}, "data_format": {"s": "TkhXQw=="}, "use_cudnn_on_gpu": {"b": true}, "dilations": {"list": {"i": ["1", "1", "1", "1"]}}, "padding": {"s": "VkFMSUQ="}, "explicit_paddings": {"list": {}}}}, {"name": "Pad_6", "op": "Pad", "input": ["block2_0/conv0/relu6", "Const_1"], "attr": {"T": {"type": "DT_FLOAT"}, "Tpaddings": {"type": "DT_INT32"}}}, {"name": "block2_0/conv1/conv2d", "op": "FusedDepthwiseConv2dNative", "input": ["Pad_6", "block2_0/conv1/weights", "block2_0/conv1/biases"], "attr": {"strides": {"list": {"i": ["1", "2", "2", "1"]}}, "dilations": {"list": {"i": ["1", "1", "1", "1"]}}, "T": {"type": "DT_FLOAT"}, "num_args": {"i": "1"}, "explicit_paddings": {"list": {}}, "fused_ops": {"list": {"s": ["Qmlhc0FkZA==", "UmVsdTY="]}}, "data_format": {"s": "TkhXQw=="}, "padding": {"s": "VkFMSUQ="}}}, {"name": "block2_0/se/pool", "op": "Mean", "input": ["block2_0/conv1/conv2d", "block2_0/se/pool/reduction_indices"], "attr": {"T": {"type": "DT_FLOAT"}, "Tidx": {"type": "DT_INT32"}, "keep_dims": {"b": true}}}, {"name": "block2_0/se/conv0/relu6", "op": "_FusedConv2D", "input": ["block2_0/se/pool", "block2_0/se/conv0/weights", "block2_0/se/conv0/biases"], "device": "/device:CPU:0", "attr": {"explicit_paddings": {"list": {}}, "use_cudnn_on_gpu": {"b": true}, "fused_ops": {"list": {"s": ["Qmlhc0FkZA==", "UmVsdTY="]}}, "epsilon": {"f": 0.0}, "padding": {"s": "VkFMSUQ="}, "num_args": {"i": "1"}, "T": {"type": "DT_FLOAT"}, "data_format": {"s": "TkhXQw=="}, "dilations": {"list": {"i": ["1", "1", "1", "1"]}}, "strides": {"list": {"i": ["1", "1", "1", "1"]}}}}, {"name": "block2_0/se/conv1/biasadd", "op": "_FusedConv2D", "input": ["block2_0/se/conv0/relu6", "block2_0/se/conv1/weights", "block2_0/se/conv1/biases"], "device": "/device:CPU:0", "attr": {"use_cudnn_on_gpu": {"b": true}, "padding": {"s": "VkFMSUQ="}, "T": {"type": "DT_FLOAT"}, "epsilon": {"f": 0.0}, "num_args": {"i": "1"}, "dilations": {"list": {"i": ["1", "1", "1", "1"]}}, "strides": {"list": {"i": ["1", "1", "1", "1"]}}, "explicit_paddings": {"list": {}}, "data_format": {"s": "TkhXQw=="}, "fused_ops": {"list": {"s": ["Qmlhc0FkZA=="]}}}}, {"name": "block2_0/se/sigmoid/add", "op": "Add", "input": ["block2_0/se/conv1/biasadd", "scalar_3"], "attr": {"T": {"type": "DT_FLOAT"}}}, {"name": "block2_0/se/sigmoid/relu6", "op": "Relu6", "input": ["block2_0/se/sigmoid/add"], "attr": {"T": {"type": "DT_FLOAT"}}}, {"name": "block2_0/se/sigmoid", "op": "Mul", "input": ["ConstantFolding/block2_0/se/sigmoid_recip", "block2_0/se/sigmoid/relu6"], "attr": {"_grappler_ArithmeticOptimizer_MinimizeBroadcasts": {"b": true}, "T": {"type": "DT_FLOAT"}}}, {"name": "block2_0/se", "op": "Mul", "input": ["block2_0/se/sigmoid", "block2_0/conv1/conv2d"], "attr": {"T": {"type": "DT_FLOAT"}, "_grappler_ArithmeticOptimizer_MinimizeBroadcasts": {"b": true}}}, {"name": "block2_0/conv2/biasadd", "op": "_FusedConv2D", "input": ["block2_0/se", "block2_0/conv2/weights", "block2_0/conv2/biases"], "device": "/device:CPU:0", "attr": {"padding": {"s": "VkFMSUQ="}, "explicit_paddings": {"list": {}}, "fused_ops": {"list": {"s": ["Qmlhc0FkZA=="]}}, "dilations": {"list": {"i": ["1", "1", "1", "1"]}}, "strides": {"list": {"i": ["1", "1", "1", "1"]}}, "epsilon": {"f": 0.0}, "use_cudnn_on_gpu": {"b": true}, "data_format": {"s": "TkhXQw=="}, "num_args": {"i": "1"}, "T": {"type": "DT_FLOAT"}}}, {"name": "block2_1/conv0/relu6", "op": "_FusedConv2D", "input": ["block2_0/conv2/biasadd", "block2_1/conv0/weights", "block2_1/conv0/biases"], "device": "/device:CPU:0", "attr": {"T": {"type": "DT_FLOAT"}, "num_args": {"i": "1"}, "data_format": {"s": "TkhXQw=="}, "padding": {"s": "VkFMSUQ="}, "use_cudnn_on_gpu": {"b": true}, "fused_ops": {"list": {"s": ["Qmlhc0FkZA==", "UmVsdTY="]}}, "epsilon": {"f": 0.0}, "strides": {"list": {"i": ["1", "1", "1", "1"]}}, "dilations": {"list": {"i": ["1", "1", "1", "1"]}}, "explicit_paddings": {"list": {}}}}, {"name": "Pad_7", "op": "Pad", "input": ["block2_1/conv0/relu6", "Const_1"], "attr": {"T": {"type": "DT_FLOAT"}, "Tpaddings": {"type": "DT_INT32"}}}, {"name": "block2_1/conv1/conv2d", "op": "FusedDepthwiseConv2dNative", "input": ["Pad_7", "block2_1/conv1/weights", "block2_1/conv1/biases"], "attr": {"dilations": {"list": {"i": ["1", "1", "1", "1"]}}, "num_args": {"i": "1"}, "data_format": {"s": "TkhXQw=="}, "explicit_paddings": {"list": {}}, "fused_ops": {"list": {"s": ["Qmlhc0FkZA==", "UmVsdTY="]}}, "strides": {"list": {"i": ["1", "1", "1", "1"]}}, "T": {"type": "DT_FLOAT"}, "padding": {"s": "VkFMSUQ="}}}, {"name": "block2_1/se/pool", "op": "Mean", "input": ["block2_1/conv1/conv2d", "block2_1/se/pool/reduction_indices"], "attr": {"T": {"type": "DT_FLOAT"}, "keep_dims": {"b": true}, "Tidx": {"type": "DT_INT32"}}}, {"name": "block2_1/se/conv0/relu6", "op": "_FusedConv2D", "input": ["block2_1/se/pool", "block2_1/se/conv0/weights", "block2_1/se/conv0/biases"], "device": "/device:CPU:0", "attr": {"fused_ops": {"list": {"s": ["Qmlhc0FkZA==", "UmVsdTY="]}}, "padding": {"s": "VkFMSUQ="}, "strides": {"list": {"i": ["1", "1", "1", "1"]}}, "dilations": {"list": {"i": ["1", "1", "1", "1"]}}, "epsilon": {"f": 0.0}, "T": {"type": "DT_FLOAT"}, "explicit_paddings": {"list": {}}, "data_format": {"s": "TkhXQw=="}, "use_cudnn_on_gpu": {"b": true}, "num_args": {"i": "1"}}}, {"name": "block2_1/se/conv1/biasadd", "op": "_FusedConv2D", "input": ["block2_1/se/conv0/relu6", "block2_1/se/conv1/weights", "block2_1/se/conv1/biases"], "device": "/device:CPU:0", "attr": {"epsilon": {"f": 0.0}, "explicit_paddings": {"list": {}}, "data_format": {"s": "TkhXQw=="}, "dilations": {"list": {"i": ["1", "1", "1", "1"]}}, "T": {"type": "DT_FLOAT"}, "strides": {"list": {"i": ["1", "1", "1", "1"]}}, "use_cudnn_on_gpu": {"b": true}, "fused_ops": {"list": {"s": ["Qmlhc0FkZA=="]}}, "num_args": {"i": "1"}, "padding": {"s": "VkFMSUQ="}}}, {"name": "block2_1/se/sigmoid/add", "op": "Add", "input": ["block2_1/se/conv1/biasadd", "scalar_3"], "attr": {"T": {"type": "DT_FLOAT"}}}, {"name": "block2_1/se/sigmoid/relu6", "op": "Relu6", "input": ["block2_1/se/sigmoid/add"], "attr": {"T": {"type": "DT_FLOAT"}}}, {"name": "block2_1/se/sigmoid", "op": "Mul", "input": ["ConstantFolding/block2_1/se/sigmoid_recip", "block2_1/se/sigmoid/relu6"], "attr": {"T": {"type": "DT_FLOAT"}, "_grappler_ArithmeticOptimizer_MinimizeBroadcasts": {"b": true}}}, {"name": "block2_1/se", "op": "Mul", "input": ["block2_1/se/sigmoid", "block2_1/conv1/conv2d"], "attr": {"_grappler_ArithmeticOptimizer_MinimizeBroadcasts": {"b": true}, "T": {"type": "DT_FLOAT"}}}, {"name": "block2_1/conv2/biasadd", "op": "_FusedConv2D", "input": ["block2_1/se", "block2_1/conv2/weights", "block2_1/conv2/biases"], "device": "/device:CPU:0", "attr": {"fused_ops": {"list": {"s": ["Qmlhc0FkZA=="]}}, "use_cudnn_on_gpu": {"b": true}, "num_args": {"i": "1"}, "explicit_paddings": {"list": {}}, "epsilon": {"f": 0.0}, "padding": {"s": "VkFMSUQ="}, "strides": {"list": {"i": ["1", "1", "1", "1"]}}, "data_format": {"s": "TkhXQw=="}, "T": {"type": "DT_FLOAT"}, "dilations": {"list": {"i": ["1", "1", "1", "1"]}}}}, {"name": "block2_1/add", "op": "Add", "input": ["block2_1/conv2/biasadd", "block2_0/conv2/biasadd"], "attr": {"T": {"type": "DT_FLOAT"}}}, {"name": "block2_2/conv0/relu6", "op": "_FusedConv2D", "input": ["block2_1/add", "block2_2/conv0/weights", "block2_2/conv0/biases"], "device": "/device:CPU:0", "attr": {"explicit_paddings": {"list": {}}, "strides": {"list": {"i": ["1", "1", "1", "1"]}}, "T": {"type": "DT_FLOAT"}, "num_args": {"i": "1"}, "epsilon": {"f": 0.0}, "padding": {"s": "VkFMSUQ="}, "dilations": {"list": {"i": ["1", "1", "1", "1"]}}, "use_cudnn_on_gpu": {"b": true}, "fused_ops": {"list": {"s": ["Qmlhc0FkZA==", "UmVsdTY="]}}, "data_format": {"s": "TkhXQw=="}}}, {"name": "Pad_8", "op": "Pad", "input": ["block2_2/conv0/relu6", "Const_1"], "attr": {"Tpaddings": {"type": "DT_INT32"}, "T": {"type": "DT_FLOAT"}}}, {"name": "block2_2/conv1/conv2d", "op": "FusedDepthwiseConv2dNative", "input": ["Pad_8", "block2_2/conv1/weights", "block2_2/conv1/biases"], "attr": {"dilations": {"list": {"i": ["1", "1", "1", "1"]}}, "fused_ops": {"list": {"s": ["Qmlhc0FkZA==", "UmVsdTY="]}}, "padding": {"s": "VkFMSUQ="}, "strides": {"list": {"i": ["1", "1", "1", "1"]}}, "T": {"type": "DT_FLOAT"}, "data_format": {"s": "TkhXQw=="}, "explicit_paddings": {"list": {}}, "num_args": {"i": "1"}}}, {"name": "block2_2/se/pool", "op": "Mean", "input": ["block2_2/conv1/conv2d", "block2_2/se/pool/reduction_indices"], "attr": {"Tidx": {"type": "DT_INT32"}, "keep_dims": {"b": true}, "T": {"type": "DT_FLOAT"}}}, {"name": "block2_2/se/conv0/relu6", "op": "_FusedConv2D", "input": ["block2_2/se/pool", "block2_2/se/conv0/weights", "block2_2/se/conv0/biases"], "device": "/device:CPU:0", "attr": {"dilations": {"list": {"i": ["1", "1", "1", "1"]}}, "T": {"type": "DT_FLOAT"}, "use_cudnn_on_gpu": {"b": true}, "strides": {"list": {"i": ["1", "1", "1", "1"]}}, "fused_ops": {"list": {"s": ["Qmlhc0FkZA==", "UmVsdTY="]}}, "num_args": {"i": "1"}, "padding": {"s": "VkFMSUQ="}, "explicit_paddings": {"list": {}}, "epsilon": {"f": 0.0}, "data_format": {"s": "TkhXQw=="}}}, {"name": "block2_2/se/conv1/biasadd", "op": "_FusedConv2D", "input": ["block2_2/se/conv0/relu6", "block2_2/se/conv1/weights", "block2_2/se/conv1/biases"], "device": "/device:CPU:0", "attr": {"T": {"type": "DT_FLOAT"}, "epsilon": {"f": 0.0}, "strides": {"list": {"i": ["1", "1", "1", "1"]}}, "padding": {"s": "VkFMSUQ="}, "explicit_paddings": {"list": {}}, "use_cudnn_on_gpu": {"b": true}, "fused_ops": {"list": {"s": ["Qmlhc0FkZA=="]}}, "num_args": {"i": "1"}, "data_format": {"s": "TkhXQw=="}, "dilations": {"list": {"i": ["1", "1", "1", "1"]}}}}, {"name": "block2_2/se/sigmoid/add", "op": "Add", "input": ["block2_2/se/conv1/biasadd", "scalar_3"], "attr": {"T": {"type": "DT_FLOAT"}}}, {"name": "block2_2/se/sigmoid/relu6", "op": "Relu6", "input": ["block2_2/se/sigmoid/add"], "attr": {"T": {"type": "DT_FLOAT"}}}, {"name": "block2_2/se/sigmoid", "op": "Mul", "input": ["ConstantFolding/block2_2/se/sigmoid_recip", "block2_2/se/sigmoid/relu6"], "attr": {"T": {"type": "DT_FLOAT"}, "_grappler_ArithmeticOptimizer_MinimizeBroadcasts": {"b": true}}}, {"name": "block2_2/se", "op": "Mul", "input": ["block2_2/se/sigmoid", "block2_2/conv1/conv2d"], "attr": {"T": {"type": "DT_FLOAT"}, "_grappler_ArithmeticOptimizer_MinimizeBroadcasts": {"b": true}}}, {"name": "block2_2/conv2/biasadd", "op": "_FusedConv2D", "input": ["block2_2/se", "block2_2/conv2/weights", "block2_2/conv2/biases"], "device": "/device:CPU:0", "attr": {"strides": {"list": {"i": ["1", "1", "1", "1"]}}, "fused_ops": {"list": {"s": ["Qmlhc0FkZA=="]}}, "use_cudnn_on_gpu": {"b": true}, "explicit_paddings": {"list": {}}, "T": {"type": "DT_FLOAT"}, "padding": {"s": "VkFMSUQ="}, "num_args": {"i": "1"}, "data_format": {"s": "TkhXQw=="}, "dilations": {"list": {"i": ["1", "1", "1", "1"]}}, "epsilon": {"f": 0.0}}}, {"name": "block2_2/add", "op": "Add", "input": ["block2_2/conv2/biasadd", "block2_1/add"], "attr": {"T": {"type": "DT_FLOAT"}}}, {"name": "block3_0/conv0/relu6", "op": "_FusedConv2D", "input": ["block2_2/add", "block3_0/conv0/weights", "block3_0/conv0/biases"], "device": "/device:CPU:0", "attr": {"explicit_paddings": {"list": {}}, "T": {"type": "DT_FLOAT"}, "num_args": {"i": "1"}, "fused_ops": {"list": {"s": ["Qmlhc0FkZA==", "UmVsdTY="]}}, "padding": {"s": "VkFMSUQ="}, "data_format": {"s": "TkhXQw=="}, "strides": {"list": {"i": ["1", "1", "1", "1"]}}, "dilations": {"list": {"i": ["1", "1", "1", "1"]}}, "epsilon": {"f": 0.0}, "use_cudnn_on_gpu": {"b": true}}}, {"name": "Pad_9", "op": "Pad", "input": ["block3_0/conv0/relu6", "Const"], "attr": {"T": {"type": "DT_FLOAT"}, "Tpaddings": {"type": "DT_INT32"}}}, {"name": "block3_0/conv1/conv2d", "op": "FusedDepthwiseConv2dNative", "input": ["Pad_9", "block3_0/conv1/weights", "block3_0/conv1/biases"], "attr": {"T": {"type": "DT_FLOAT"}, "data_format": {"s": "TkhXQw=="}, "fused_ops": {"list": {"s": ["Qmlhc0FkZA==", "UmVsdTY="]}}, "dilations": {"list": {"i": ["1", "1", "1", "1"]}}, "padding": {"s": "VkFMSUQ="}, "num_args": {"i": "1"}, "strides": {"list": {"i": ["1", "2", "2", "1"]}}, "explicit_paddings": {"list": {}}}}, {"name": "block3_0/se/pool", "op": "Mean", "input": ["block3_0/conv1/conv2d", "block3_0/se/pool/reduction_indices"], "attr": {"T": {"type": "DT_FLOAT"}, "keep_dims": {"b": true}, "Tidx": {"type": "DT_INT32"}}}, {"name": "block3_0/se/conv0/relu6", "op": "_FusedConv2D", "input": ["block3_0/se/pool", "block3_0/se/conv0/weights", "block3_0/se/conv0/biases"], "device": "/device:CPU:0", "attr": {"dilations": {"list": {"i": ["1", "1", "1", "1"]}}, "use_cudnn_on_gpu": {"b": true}, "strides": {"list": {"i": ["1", "1", "1", "1"]}}, "fused_ops": {"list": {"s": ["Qmlhc0FkZA==", "UmVsdTY="]}}, "num_args": {"i": "1"}, "explicit_paddings": {"list": {}}, "epsilon": {"f": 0.0}, "data_format": {"s": "TkhXQw=="}, "padding": {"s": "VkFMSUQ="}, "T": {"type": "DT_FLOAT"}}}, {"name": "block3_0/se/conv1/biasadd", "op": "_FusedConv2D", "input": ["block3_0/se/conv0/relu6", "block3_0/se/conv1/weights", "block3_0/se/conv1/biases"], "device": "/device:CPU:0", "attr": {"explicit_paddings": {"list": {}}, "use_cudnn_on_gpu": {"b": true}, "data_format": {"s": "TkhXQw=="}, "fused_ops": {"list": {"s": ["Qmlhc0FkZA=="]}}, "strides": {"list": {"i": ["1", "1", "1", "1"]}}, "epsilon": {"f": 0.0}, "padding": {"s": "VkFMSUQ="}, "num_args": {"i": "1"}, "T": {"type": "DT_FLOAT"}, "dilations": {"list": {"i": ["1", "1", "1", "1"]}}}}, {"name": "block3_0/se/sigmoid/add", "op": "Add", "input": ["block3_0/se/conv1/biasadd", "scalar_3"], "attr": {"T": {"type": "DT_FLOAT"}}}, {"name": "block3_0/se/sigmoid/relu6", "op": "Relu6", "input": ["block3_0/se/sigmoid/add"], "attr": {"T": {"type": "DT_FLOAT"}}}, {"name": "block3_0/se/sigmoid", "op": "Mul", "input": ["ConstantFolding/block3_0/se/sigmoid_recip", "block3_0/se/sigmoid/relu6"], "attr": {"T": {"type": "DT_FLOAT"}, "_grappler_ArithmeticOptimizer_MinimizeBroadcasts": {"b": true}}}, {"name": "block3_0/se", "op": "Mul", "input": ["block3_0/se/sigmoid", "block3_0/conv1/conv2d"], "attr": {"T": {"type": "DT_FLOAT"}, "_grappler_ArithmeticOptimizer_MinimizeBroadcasts": {"b": true}}}, {"name": "block3_0/conv2/biasadd", "op": "_FusedConv2D", "input": ["block3_0/se", "block3_0/conv2/weights", "block3_0/conv2/biases"], "device": "/device:CPU:0", "attr": {"strides": {"list": {"i": ["1", "1", "1", "1"]}}, "T": {"type": "DT_FLOAT"}, "dilations": {"list": {"i": ["1", "1", "1", "1"]}}, "padding": {"s": "VkFMSUQ="}, "data_format": {"s": "TkhXQw=="}, "epsilon": {"f": 0.0}, "num_args": {"i": "1"}, "use_cudnn_on_gpu": {"b": true}, "fused_ops": {"list": {"s": ["Qmlhc0FkZA=="]}}, "explicit_paddings": {"list": {}}}}, {"name": "block3_1/conv0/relu6", "op": "_FusedConv2D", "input": ["block3_0/conv2/biasadd", "block3_1/conv0/weights", "block3_1/conv0/biases"], "device": "/device:CPU:0", "attr": {"fused_ops": {"list": {"s": ["Qmlhc0FkZA==", "UmVsdTY="]}}, "num_args": {"i": "1"}, "T": {"type": "DT_FLOAT"}, "strides": {"list": {"i": ["1", "1", "1", "1"]}}, "dilations": {"list": {"i": ["1", "1", "1", "1"]}}, "padding": {"s": "VkFMSUQ="}, "epsilon": {"f": 0.0}, "explicit_paddings": {"list": {}}, "data_format": {"s": "TkhXQw=="}, "use_cudnn_on_gpu": {"b": true}}}, {"name": "Pad_10", "op": "Pad", "input": ["block3_1/conv0/relu6", "Const"], "attr": {"Tpaddings": {"type": "DT_INT32"}, "T": {"type": "DT_FLOAT"}}}, {"name": "block3_1/conv1/conv2d", "op": "FusedDepthwiseConv2dNative", "input": ["Pad_10", "block3_1/conv1/weights", "block3_1/conv1/biases"], "attr": {"padding": {"s": "VkFMSUQ="}, "dilations": {"list": {"i": ["1", "1", "1", "1"]}}, "explicit_paddings": {"list": {}}, "strides": {"list": {"i": ["1", "1", "1", "1"]}}, "data_format": {"s": "TkhXQw=="}, "num_args": {"i": "1"}, "T": {"type": "DT_FLOAT"}, "fused_ops": {"list": {"s": ["Qmlhc0FkZA==", "UmVsdTY="]}}}}, {"name": "block3_1/se/pool", "op": "Mean", "input": ["block3_1/conv1/conv2d", "block3_1/se/pool/reduction_indices"], "attr": {"T": {"type": "DT_FLOAT"}, "keep_dims": {"b": true}, "Tidx": {"type": "DT_INT32"}}}, {"name": "block3_1/se/conv0/relu6", "op": "_FusedConv2D", "input": ["block3_1/se/pool", "block3_1/se/conv0/weights", "block3_1/se/conv0/biases"], "device": "/device:CPU:0", "attr": {"padding": {"s": "VkFMSUQ="}, "explicit_paddings": {"list": {}}, "num_args": {"i": "1"}, "epsilon": {"f": 0.0}, "fused_ops": {"list": {"s": ["Qmlhc0FkZA==", "UmVsdTY="]}}, "strides": {"list": {"i": ["1", "1", "1", "1"]}}, "data_format": {"s": "TkhXQw=="}, "dilations": {"list": {"i": ["1", "1", "1", "1"]}}, "use_cudnn_on_gpu": {"b": true}, "T": {"type": "DT_FLOAT"}}}, {"name": "block3_1/se/conv1/biasadd", "op": "_FusedConv2D", "input": ["block3_1/se/conv0/relu6", "block3_1/se/conv1/weights", "block3_1/se/conv1/biases"], "device": "/device:CPU:0", "attr": {"data_format": {"s": "TkhXQw=="}, "dilations": {"list": {"i": ["1", "1", "1", "1"]}}, "padding": {"s": "VkFMSUQ="}, "fused_ops": {"list": {"s": ["Qmlhc0FkZA=="]}}, "use_cudnn_on_gpu": {"b": true}, "explicit_paddings": {"list": {}}, "num_args": {"i": "1"}, "T": {"type": "DT_FLOAT"}, "strides": {"list": {"i": ["1", "1", "1", "1"]}}, "epsilon": {"f": 0.0}}}, {"name": "block3_1/se/sigmoid/add", "op": "Add", "input": ["block3_1/se/conv1/biasadd", "scalar_3"], "attr": {"T": {"type": "DT_FLOAT"}}}, {"name": "block3_1/se/sigmoid/relu6", "op": "Relu6", "input": ["block3_1/se/sigmoid/add"], "attr": {"T": {"type": "DT_FLOAT"}}}, {"name": "block3_1/se/sigmoid", "op": "Mul", "input": ["ConstantFolding/block3_1/se/sigmoid_recip", "block3_1/se/sigmoid/relu6"], "attr": {"_grappler_ArithmeticOptimizer_MinimizeBroadcasts": {"b": true}, "T": {"type": "DT_FLOAT"}}}, {"name": "block3_1/se", "op": "Mul", "input": ["block3_1/se/sigmoid", "block3_1/conv1/conv2d"], "attr": {"T": {"type": "DT_FLOAT"}, "_grappler_ArithmeticOptimizer_MinimizeBroadcasts": {"b": true}}}, {"name": "block3_1/conv2/biasadd", "op": "_FusedConv2D", "input": ["block3_1/se", "block3_1/conv2/weights", "block3_1/conv2/biases"], "device": "/device:CPU:0", "attr": {"explicit_paddings": {"list": {}}, "strides": {"list": {"i": ["1", "1", "1", "1"]}}, "num_args": {"i": "1"}, "data_format": {"s": "TkhXQw=="}, "epsilon": {"f": 0.0}, "fused_ops": {"list": {"s": ["Qmlhc0FkZA=="]}}, "T": {"type": "DT_FLOAT"}, "padding": {"s": "VkFMSUQ="}, "use_cudnn_on_gpu": {"b": true}, "dilations": {"list": {"i": ["1", "1", "1", "1"]}}}}, {"name": "block3_1/add", "op": "Add", "input": ["block3_1/conv2/biasadd", "block3_0/conv2/biasadd"], "attr": {"T": {"type": "DT_FLOAT"}}}, {"name": "block3_2/conv0/relu6", "op": "_FusedConv2D", "input": ["block3_1/add", "block3_2/conv0/weights", "block3_2/conv0/biases"], "device": "/device:CPU:0", "attr": {"padding": {"s": "VkFMSUQ="}, "T": {"type": "DT_FLOAT"}, "data_format": {"s": "TkhXQw=="}, "explicit_paddings": {"list": {}}, "dilations": {"list": {"i": ["1", "1", "1", "1"]}}, "fused_ops": {"list": {"s": ["Qmlhc0FkZA==", "UmVsdTY="]}}, "strides": {"list": {"i": ["1", "1", "1", "1"]}}, "epsilon": {"f": 0.0}, "num_args": {"i": "1"}, "use_cudnn_on_gpu": {"b": true}}}, {"name": "Pad_11", "op": "Pad", "input": ["block3_2/conv0/relu6", "Const"], "attr": {"T": {"type": "DT_FLOAT"}, "Tpaddings": {"type": "DT_INT32"}}}, {"name": "block3_2/conv1/conv2d", "op": "FusedDepthwiseConv2dNative", "input": ["Pad_11", "block3_2/conv1/weights", "block3_2/conv1/biases"], "attr": {"fused_ops": {"list": {"s": ["Qmlhc0FkZA==", "UmVsdTY="]}}, "strides": {"list": {"i": ["1", "1", "1", "1"]}}, "explicit_paddings": {"list": {}}, "dilations": {"list": {"i": ["1", "1", "1", "1"]}}, "data_format": {"s": "TkhXQw=="}, "padding": {"s": "VkFMSUQ="}, "num_args": {"i": "1"}, "T": {"type": "DT_FLOAT"}}}, {"name": "block3_2/se/pool", "op": "Mean", "input": ["block3_2/conv1/conv2d", "block3_2/se/pool/reduction_indices"], "attr": {"Tidx": {"type": "DT_INT32"}, "keep_dims": {"b": true}, "T": {"type": "DT_FLOAT"}}}, {"name": "block3_2/se/conv0/relu6", "op": "_FusedConv2D", "input": ["block3_2/se/pool", "block3_2/se/conv0/weights", "block3_2/se/conv0/biases"], "device": "/device:CPU:0", "attr": {"explicit_paddings": {"list": {}}, "T": {"type": "DT_FLOAT"}, "epsilon": {"f": 0.0}, "data_format": {"s": "TkhXQw=="}, "strides": {"list": {"i": ["1", "1", "1", "1"]}}, "dilations": {"list": {"i": ["1", "1", "1", "1"]}}, "num_args": {"i": "1"}, "padding": {"s": "VkFMSUQ="}, "use_cudnn_on_gpu": {"b": true}, "fused_ops": {"list": {"s": ["Qmlhc0FkZA==", "UmVsdTY="]}}}}, {"name": "block3_2/se/conv1/biasadd", "op": "_FusedConv2D", "input": ["block3_2/se/conv0/relu6", "block3_2/se/conv1/weights", "block3_2/se/conv1/biases"], "device": "/device:CPU:0", "attr": {"padding": {"s": "VkFMSUQ="}, "fused_ops": {"list": {"s": ["Qmlhc0FkZA=="]}}, "strides": {"list": {"i": ["1", "1", "1", "1"]}}, "use_cudnn_on_gpu": {"b": true}, "data_format": {"s": "TkhXQw=="}, "epsilon": {"f": 0.0}, "explicit_paddings": {"list": {}}, "T": {"type": "DT_FLOAT"}, "num_args": {"i": "1"}, "dilations": {"list": {"i": ["1", "1", "1", "1"]}}}}, {"name": "block3_2/se/sigmoid/add", "op": "Add", "input": ["block3_2/se/conv1/biasadd", "scalar_3"], "attr": {"T": {"type": "DT_FLOAT"}}}, {"name": "block3_2/se/sigmoid/relu6", "op": "Relu6", "input": ["block3_2/se/sigmoid/add"], "attr": {"T": {"type": "DT_FLOAT"}}}, {"name": "block3_2/se/sigmoid", "op": "Mul", "input": ["ConstantFolding/block3_2/se/sigmoid_recip", "block3_2/se/sigmoid/relu6"], "attr": {"T": {"type": "DT_FLOAT"}, "_grappler_ArithmeticOptimizer_MinimizeBroadcasts": {"b": true}}}, {"name": "block3_2/se", "op": "Mul", "input": ["block3_2/se/sigmoid", "block3_2/conv1/conv2d"], "attr": {"T": {"type": "DT_FLOAT"}, "_grappler_ArithmeticOptimizer_MinimizeBroadcasts": {"b": true}}}, {"name": "block3_2/conv2/biasadd", "op": "_FusedConv2D", "input": ["block3_2/se", "block3_2/conv2/weights", "block3_2/conv2/biases"], "device": "/device:CPU:0", "attr": {"fused_ops": {"list": {"s": ["Qmlhc0FkZA=="]}}, "explicit_paddings": {"list": {}}, "use_cudnn_on_gpu": {"b": true}, "dilations": {"list": {"i": ["1", "1", "1", "1"]}}, "padding": {"s": "VkFMSUQ="}, "data_format": {"s": "TkhXQw=="}, "T": {"type": "DT_FLOAT"}, "epsilon": {"f": 0.0}, "strides": {"list": {"i": ["1", "1", "1", "1"]}}, "num_args": {"i": "1"}}}, {"name": "block3_2/add", "op": "Add", "input": ["block3_2/conv2/biasadd", "block3_1/add"], "attr": {"T": {"type": "DT_FLOAT"}}}, {"name": "block3_3/conv0/relu6", "op": "_FusedConv2D", "input": ["block3_2/add", "block3_3/conv0/weights", "block3_3/conv0/biases"], "device": "/device:CPU:0", "attr": {"use_cudnn_on_gpu": {"b": true}, "explicit_paddings": {"list": {}}, "strides": {"list": {"i": ["1", "1", "1", "1"]}}, "num_args": {"i": "1"}, "dilations": {"list": {"i": ["1", "1", "1", "1"]}}, "fused_ops": {"list": {"s": ["Qmlhc0FkZA==", "UmVsdTY="]}}, "T": {"type": "DT_FLOAT"}, "epsilon": {"f": 0.0}, "padding": {"s": "VkFMSUQ="}, "data_format": {"s": "TkhXQw=="}}}, {"name": "Pad_12", "op": "Pad", "input": ["block3_3/conv0/relu6", "Const"], "attr": {"Tpaddings": {"type": "DT_INT32"}, "T": {"type": "DT_FLOAT"}}}, {"name": "block3_3/conv1/conv2d", "op": "FusedDepthwiseConv2dNative", "input": ["Pad_12", "block3_3/conv1/weights", "block3_3/conv1/biases"], "attr": {"explicit_paddings": {"list": {}}, "data_format": {"s": "TkhXQw=="}, "dilations": {"list": {"i": ["1", "1", "1", "1"]}}, "strides": {"list": {"i": ["1", "1", "1", "1"]}}, "T": {"type": "DT_FLOAT"}, "padding": {"s": "VkFMSUQ="}, "fused_ops": {"list": {"s": ["Qmlhc0FkZA==", "UmVsdTY="]}}, "num_args": {"i": "1"}}}, {"name": "block3_3/se/pool", "op": "Mean", "input": ["block3_3/conv1/conv2d", "block3_3/se/pool/reduction_indices"], "attr": {"keep_dims": {"b": true}, "T": {"type": "DT_FLOAT"}, "Tidx": {"type": "DT_INT32"}}}, {"name": "block3_3/se/conv0/relu6", "op": "_FusedConv2D", "input": ["block3_3/se/pool", "block3_3/se/conv0/weights", "block3_3/se/conv0/biases"], "device": "/device:CPU:0", "attr": {"epsilon": {"f": 0.0}, "num_args": {"i": "1"}, "use_cudnn_on_gpu": {"b": true}, "dilations": {"list": {"i": ["1", "1", "1", "1"]}}, "fused_ops": {"list": {"s": ["Qmlhc0FkZA==", "UmVsdTY="]}}, "explicit_paddings": {"list": {}}, "T": {"type": "DT_FLOAT"}, "padding": {"s": "VkFMSUQ="}, "data_format": {"s": "TkhXQw=="}, "strides": {"list": {"i": ["1", "1", "1", "1"]}}}}, {"name": "block3_3/se/conv1/biasadd", "op": "_FusedConv2D", "input": ["block3_3/se/conv0/relu6", "block3_3/se/conv1/weights", "block3_3/se/conv1/biases"], "device": "/device:CPU:0", "attr": {"padding": {"s": "VkFMSUQ="}, "epsilon": {"f": 0.0}, "num_args": {"i": "1"}, "T": {"type": "DT_FLOAT"}, "data_format": {"s": "TkhXQw=="}, "explicit_paddings": {"list": {}}, "strides": {"list": {"i": ["1", "1", "1", "1"]}}, "fused_ops": {"list": {"s": ["Qmlhc0FkZA=="]}}, "use_cudnn_on_gpu": {"b": true}, "dilations": {"list": {"i": ["1", "1", "1", "1"]}}}}, {"name": "block3_3/se/sigmoid/add", "op": "Add", "input": ["block3_3/se/conv1/biasadd", "scalar_3"], "attr": {"T": {"type": "DT_FLOAT"}}}, {"name": "block3_3/se/sigmoid/relu6", "op": "Relu6", "input": ["block3_3/se/sigmoid/add"], "attr": {"T": {"type": "DT_FLOAT"}}}, {"name": "block3_3/se/sigmoid", "op": "Mul", "input": ["ConstantFolding/block3_3/se/sigmoid_recip", "block3_3/se/sigmoid/relu6"], "attr": {"T": {"type": "DT_FLOAT"}, "_grappler_ArithmeticOptimizer_MinimizeBroadcasts": {"b": true}}}, {"name": "block3_3/se", "op": "Mul", "input": ["block3_3/se/sigmoid", "block3_3/conv1/conv2d"], "attr": {"T": {"type": "DT_FLOAT"}, "_grappler_ArithmeticOptimizer_MinimizeBroadcasts": {"b": true}}}, {"name": "block3_3/conv2/biasadd", "op": "_FusedConv2D", "input": ["block3_3/se", "block3_3/conv2/weights", "block3_3/conv2/biases"], "device": "/device:CPU:0", "attr": {"num_args": {"i": "1"}, "T": {"type": "DT_FLOAT"}, "data_format": {"s": "TkhXQw=="}, "dilations": {"list": {"i": ["1", "1", "1", "1"]}}, "fused_ops": {"list": {"s": ["Qmlhc0FkZA=="]}}, "use_cudnn_on_gpu": {"b": true}, "epsilon": {"f": 0.0}, "padding": {"s": "VkFMSUQ="}, "explicit_paddings": {"list": {}}, "strides": {"list": {"i": ["1", "1", "1", "1"]}}}}, {"name": "block3_3/add", "op": "Add", "input": ["block3_3/conv2/biasadd", "block3_2/add"], "attr": {"T": {"type": "DT_FLOAT"}}}, {"name": "block3_4/conv0/relu6", "op": "_FusedConv2D", "input": ["block3_3/add", "block3_4/conv0/weights", "block3_4/conv0/biases"], "device": "/device:CPU:0", "attr": {"data_format": {"s": "TkhXQw=="}, "strides": {"list": {"i": ["1", "1", "1", "1"]}}, "fused_ops": {"list": {"s": ["Qmlhc0FkZA==", "UmVsdTY="]}}, "T": {"type": "DT_FLOAT"}, "num_args": {"i": "1"}, "explicit_paddings": {"list": {}}, "padding": {"s": "VkFMSUQ="}, "use_cudnn_on_gpu": {"b": true}, "epsilon": {"f": 0.0}, "dilations": {"list": {"i": ["1", "1", "1", "1"]}}}}, {"name": "Pad_13", "op": "Pad", "input": ["block3_4/conv0/relu6", "Const"], "attr": {"Tpaddings": {"type": "DT_INT32"}, "T": {"type": "DT_FLOAT"}}}, {"name": "block3_4/conv1/conv2d", "op": "FusedDepthwiseConv2dNative", "input": ["Pad_13", "block3_4/conv1/weights", "block3_4/conv1/biases"], "attr": {"data_format": {"s": "TkhXQw=="}, "num_args": {"i": "1"}, "fused_ops": {"list": {"s": ["Qmlhc0FkZA==", "UmVsdTY="]}}, "padding": {"s": "VkFMSUQ="}, "explicit_paddings": {"list": {}}, "strides": {"list": {"i": ["1", "1", "1", "1"]}}, "dilations": {"list": {"i": ["1", "1", "1", "1"]}}, "T": {"type": "DT_FLOAT"}}}, {"name": "block3_4/se/pool", "op": "Mean", "input": ["block3_4/conv1/conv2d", "block3_4/se/pool/reduction_indices"], "attr": {"T": {"type": "DT_FLOAT"}, "keep_dims": {"b": true}, "Tidx": {"type": "DT_INT32"}}}, {"name": "block3_4/se/conv0/relu6", "op": "_FusedConv2D", "input": ["block3_4/se/pool", "block3_4/se/conv0/weights", "block3_4/se/conv0/biases"], "device": "/device:CPU:0", "attr": {"num_args": {"i": "1"}, "padding": {"s": "VkFMSUQ="}, "T": {"type": "DT_FLOAT"}, "dilations": {"list": {"i": ["1", "1", "1", "1"]}}, "epsilon": {"f": 0.0}, "strides": {"list": {"i": ["1", "1", "1", "1"]}}, "data_format": {"s": "TkhXQw=="}, "use_cudnn_on_gpu": {"b": true}, "explicit_paddings": {"list": {}}, "fused_ops": {"list": {"s": ["Qmlhc0FkZA==", "UmVsdTY="]}}}}, {"name": "block3_4/se/conv1/biasadd", "op": "_FusedConv2D", "input": ["block3_4/se/conv0/relu6", "block3_4/se/conv1/weights", "block3_4/se/conv1/biases"], "device": "/device:CPU:0", "attr": {"T": {"type": "DT_FLOAT"}, "explicit_paddings": {"list": {}}, "dilations": {"list": {"i": ["1", "1", "1", "1"]}}, "use_cudnn_on_gpu": {"b": true}, "padding": {"s": "VkFMSUQ="}, "strides": {"list": {"i": ["1", "1", "1", "1"]}}, "fused_ops": {"list": {"s": ["Qmlhc0FkZA=="]}}, "num_args": {"i": "1"}, "epsilon": {"f": 0.0}, "data_format": {"s": "TkhXQw=="}}}, {"name": "block3_4/se/sigmoid/add", "op": "Add", "input": ["block3_4/se/conv1/biasadd", "scalar_3"], "attr": {"T": {"type": "DT_FLOAT"}}}, {"name": "block3_4/se/sigmoid/relu6", "op": "Relu6", "input": ["block3_4/se/sigmoid/add"], "attr": {"T": {"type": "DT_FLOAT"}}}, {"name": "block3_4/se/sigmoid", "op": "Mul", "input": ["ConstantFolding/block3_4/se/sigmoid_recip", "block3_4/se/sigmoid/relu6"], "attr": {"T": {"type": "DT_FLOAT"}, "_grappler_ArithmeticOptimizer_MinimizeBroadcasts": {"b": true}}}, {"name": "block3_4/se", "op": "Mul", "input": ["block3_4/se/sigmoid", "block3_4/conv1/conv2d"], "attr": {"_grappler_ArithmeticOptimizer_MinimizeBroadcasts": {"b": true}, "T": {"type": "DT_FLOAT"}}}, {"name": "block3_4/conv2/biasadd", "op": "_FusedConv2D", "input": ["block3_4/se", "block3_4/conv2/weights", "block3_4/conv2/biases"], "device": "/device:CPU:0", "attr": {"strides": {"list": {"i": ["1", "1", "1", "1"]}}, "data_format": {"s": "TkhXQw=="}, "epsilon": {"f": 0.0}, "dilations": {"list": {"i": ["1", "1", "1", "1"]}}, "padding": {"s": "VkFMSUQ="}, "num_args": {"i": "1"}, "T": {"type": "DT_FLOAT"}, "fused_ops": {"list": {"s": ["Qmlhc0FkZA=="]}}, "explicit_paddings": {"list": {}}, "use_cudnn_on_gpu": {"b": true}}}, {"name": "block3_4/add", "op": "Add", "input": ["block3_4/conv2/biasadd", "block3_3/add"], "attr": {"T": {"type": "DT_FLOAT"}}}, {"name": "block4_0/conv0/relu6", "op": "_FusedConv2D", "input": ["block3_4/add", "block4_0/conv0/weights", "block4_0/conv0/biases"], "device": "/device:CPU:0", "attr": {"padding": {"s": "VkFMSUQ="}, "T": {"type": "DT_FLOAT"}, "dilations": {"list": {"i": ["1", "1", "1", "1"]}}, "fused_ops": {"list": {"s": ["Qmlhc0FkZA==", "UmVsdTY="]}}, "use_cudnn_on_gpu": {"b": true}, "num_args": {"i": "1"}, "epsilon": {"f": 0.0}, "explicit_paddings": {"list": {}}, "data_format": {"s": "TkhXQw=="}, "strides": {"list": {"i": ["1", "1", "1", "1"]}}}}, {"name": "Pad_14", "op": "Pad", "input": ["block4_0/conv0/relu6", "Const_1"], "attr": {"T": {"type": "DT_FLOAT"}, "Tpaddings": {"type": "DT_INT32"}}}, {"name": "block4_0/conv1/conv2d", "op": "FusedDepthwiseConv2dNative", "input": ["Pad_14", "block4_0/conv1/weights", "block4_0/conv1/biases"], "attr": {"T": {"type": "DT_FLOAT"}, "fused_ops": {"list": {"s": ["Qmlhc0FkZA==", "UmVsdTY="]}}, "data_format": {"s": "TkhXQw=="}, "num_args": {"i": "1"}, "strides": {"list": {"i": ["1", "1", "1", "1"]}}, "dilations": {"list": {"i": ["1", "1", "1", "1"]}}, "explicit_paddings": {"list": {}}, "padding": {"s": "VkFMSUQ="}}}, {"name": "block4_0/se/pool", "op": "Mean", "input": ["block4_0/conv1/conv2d", "block4_0/se/pool/reduction_indices"], "attr": {"T": {"type": "DT_FLOAT"}, "keep_dims": {"b": true}, "Tidx": {"type": "DT_INT32"}}}, {"name": "block4_0/se/conv0/relu6", "op": "_FusedConv2D", "input": ["block4_0/se/pool", "block4_0/se/conv0/weights", "block4_0/se/conv0/biases"], "device": "/device:CPU:0", "attr": {"T": {"type": "DT_FLOAT"}, "padding": {"s": "VkFMSUQ="}, "fused_ops": {"list": {"s": ["Qmlhc0FkZA==", "UmVsdTY="]}}, "use_cudnn_on_gpu": {"b": true}, "dilations": {"list": {"i": ["1", "1", "1", "1"]}}, "num_args": {"i": "1"}, "data_format": {"s": "TkhXQw=="}, "strides": {"list": {"i": ["1", "1", "1", "1"]}}, "explicit_paddings": {"list": {}}, "epsilon": {"f": 0.0}}}, {"name": "block4_0/se/conv1/biasadd", "op": "_FusedConv2D", "input": ["block4_0/se/conv0/relu6", "block4_0/se/conv1/weights", "block4_0/se/conv1/biases"], "device": "/device:CPU:0", "attr": {"explicit_paddings": {"list": {}}, "epsilon": {"f": 0.0}, "T": {"type": "DT_FLOAT"}, "strides": {"list": {"i": ["1", "1", "1", "1"]}}, "data_format": {"s": "TkhXQw=="}, "use_cudnn_on_gpu": {"b": true}, "fused_ops": {"list": {"s": ["Qmlhc0FkZA=="]}}, "padding": {"s": "VkFMSUQ="}, "num_args": {"i": "1"}, "dilations": {"list": {"i": ["1", "1", "1", "1"]}}}}, {"name": "block4_0/se/sigmoid/add", "op": "Add", "input": ["block4_0/se/conv1/biasadd", "scalar_3"], "attr": {"T": {"type": "DT_FLOAT"}}}, {"name": "block4_0/se/sigmoid/relu6", "op": "Relu6", "input": ["block4_0/se/sigmoid/add"], "attr": {"T": {"type": "DT_FLOAT"}}}, {"name": "block4_0/se/sigmoid", "op": "Mul", "input": ["ConstantFolding/block4_0/se/sigmoid_recip", "block4_0/se/sigmoid/relu6"], "attr": {"_grappler_ArithmeticOptimizer_MinimizeBroadcasts": {"b": true}, "T": {"type": "DT_FLOAT"}}}, {"name": "block4_0/se", "op": "Mul", "input": ["block4_0/se/sigmoid", "block4_0/conv1/conv2d"], "attr": {"_grappler_ArithmeticOptimizer_MinimizeBroadcasts": {"b": true}, "T": {"type": "DT_FLOAT"}}}, {"name": "block4_0/conv2/biasadd", "op": "_FusedConv2D", "input": ["block4_0/se", "block4_0/conv2/weights", "block4_0/conv2/biases"], "device": "/device:CPU:0", "attr": {"dilations": {"list": {"i": ["1", "1", "1", "1"]}}, "explicit_paddings": {"list": {}}, "T": {"type": "DT_FLOAT"}, "strides": {"list": {"i": ["1", "1", "1", "1"]}}, "epsilon": {"f": 0.0}, "padding": {"s": "VkFMSUQ="}, "num_args": {"i": "1"}, "data_format": {"s": "TkhXQw=="}, "use_cudnn_on_gpu": {"b": true}, "fused_ops": {"list": {"s": ["Qmlhc0FkZA=="]}}}}, {"name": "block4_1/conv0/relu6", "op": "_FusedConv2D", "input": ["block4_0/conv2/biasadd", "block4_1/conv0/weights", "block4_1/conv0/biases"], "device": "/device:CPU:0", "attr": {"use_cudnn_on_gpu": {"b": true}, "fused_ops": {"list": {"s": ["Qmlhc0FkZA==", "UmVsdTY="]}}, "explicit_paddings": {"list": {}}, "data_format": {"s": "TkhXQw=="}, "num_args": {"i": "1"}, "padding": {"s": "VkFMSUQ="}, "strides": {"list": {"i": ["1", "1", "1", "1"]}}, "T": {"type": "DT_FLOAT"}, "dilations": {"list": {"i": ["1", "1", "1", "1"]}}, "epsilon": {"f": 0.0}}}, {"name": "Pad_15", "op": "Pad", "input": ["block4_1/conv0/relu6", "Const_1"], "attr": {"T": {"type": "DT_FLOAT"}, "Tpaddings": {"type": "DT_INT32"}}}, {"name": "block4_1/conv1/conv2d", "op": "FusedDepthwiseConv2dNative", "input": ["Pad_15", "block4_1/conv1/weights", "block4_1/conv1/biases"], "attr": {"fused_ops": {"list": {"s": ["Qmlhc0FkZA==", "UmVsdTY="]}}, "num_args": {"i": "1"}, "strides": {"list": {"i": ["1", "1", "1", "1"]}}, "dilations": {"list": {"i": ["1", "1", "1", "1"]}}, "padding": {"s": "VkFMSUQ="}, "explicit_paddings": {"list": {}}, "T": {"type": "DT_FLOAT"}, "data_format": {"s": "TkhXQw=="}}}, {"name": "block4_1/se/pool", "op": "Mean", "input": ["block4_1/conv1/conv2d", "block4_1/se/pool/reduction_indices"], "attr": {"T": {"type": "DT_FLOAT"}, "Tidx": {"type": "DT_INT32"}, "keep_dims": {"b": true}}}, {"name": "block4_1/se/conv0/relu6", "op": "_FusedConv2D", "input": ["block4_1/se/pool", "block4_1/se/conv0/weights", "block4_1/se/conv0/biases"], "device": "/device:CPU:0", "attr": {"use_cudnn_on_gpu": {"b": true}, "fused_ops": {"list": {"s": ["Qmlhc0FkZA==", "UmVsdTY="]}}, "epsilon": {"f": 0.0}, "num_args": {"i": "1"}, "data_format": {"s": "TkhXQw=="}, "explicit_paddings": {"list": {}}, "dilations": {"list": {"i": ["1", "1", "1", "1"]}}, "padding": {"s": "VkFMSUQ="}, "strides": {"list": {"i": ["1", "1", "1", "1"]}}, "T": {"type": "DT_FLOAT"}}}, {"name": "block4_1/se/conv1/biasadd", "op": "_FusedConv2D", "input": ["block4_1/se/conv0/relu6", "block4_1/se/conv1/weights", "block4_1/se/conv1/biases"], "device": "/device:CPU:0", "attr": {"use_cudnn_on_gpu": {"b": true}, "explicit_paddings": {"list": {}}, "T": {"type": "DT_FLOAT"}, "fused_ops": {"list": {"s": ["Qmlhc0FkZA=="]}}, "dilations": {"list": {"i": ["1", "1", "1", "1"]}}, "padding": {"s": "VkFMSUQ="}, "strides": {"list": {"i": ["1", "1", "1", "1"]}}, "epsilon": {"f": 0.0}, "num_args": {"i": "1"}, "data_format": {"s": "TkhXQw=="}}}, {"name": "block4_1/se/sigmoid/add", "op": "Add", "input": ["block4_1/se/conv1/biasadd", "scalar_3"], "attr": {"T": {"type": "DT_FLOAT"}}}, {"name": "block4_1/se/sigmoid/relu6", "op": "Relu6", "input": ["block4_1/se/sigmoid/add"], "attr": {"T": {"type": "DT_FLOAT"}}}, {"name": "block4_1/se/sigmoid", "op": "Mul", "input": ["ConstantFolding/block4_1/se/sigmoid_recip", "block4_1/se/sigmoid/relu6"], "attr": {"_grappler_ArithmeticOptimizer_MinimizeBroadcasts": {"b": true}, "T": {"type": "DT_FLOAT"}}}, {"name": "block4_1/se", "op": "Mul", "input": ["block4_1/se/sigmoid", "block4_1/conv1/conv2d"], "attr": {"_grappler_ArithmeticOptimizer_MinimizeBroadcasts": {"b": true}, "T": {"type": "DT_FLOAT"}}}, {"name": "block4_1/conv2/biasadd", "op": "_FusedConv2D", "input": ["block4_1/se", "block4_1/conv2/weights", "block4_1/conv2/biases"], "device": "/device:CPU:0", "attr": {"explicit_paddings": {"list": {}}, "padding": {"s": "VkFMSUQ="}, "data_format": {"s": "TkhXQw=="}, "T": {"type": "DT_FLOAT"}, "strides": {"list": {"i": ["1", "1", "1", "1"]}}, "fused_ops": {"list": {"s": ["Qmlhc0FkZA=="]}}, "use_cudnn_on_gpu": {"b": true}, "epsilon": {"f": 0.0}, "num_args": {"i": "1"}, "dilations": {"list": {"i": ["1", "1", "1", "1"]}}}}, {"name": "block4_1/add", "op": "Add", "input": ["block4_1/conv2/biasadd", "block4_0/conv2/biasadd"], "attr": {"T": {"type": "DT_FLOAT"}}}, {"name": "block4_2/conv0/relu6", "op": "_FusedConv2D", "input": ["block4_1/add", "block4_2/conv0/weights", "block4_2/conv0/biases"], "device": "/device:CPU:0", "attr": {"explicit_paddings": {"list": {}}, "num_args": {"i": "1"}, "dilations": {"list": {"i": ["1", "1", "1", "1"]}}, "fused_ops": {"list": {"s": ["Qmlhc0FkZA==", "UmVsdTY="]}}, "epsilon": {"f": 0.0}, "padding": {"s": "VkFMSUQ="}, "strides": {"list": {"i": ["1", "1", "1", "1"]}}, "use_cudnn_on_gpu": {"b": true}, "data_format": {"s": "TkhXQw=="}, "T": {"type": "DT_FLOAT"}}}, {"name": "Pad_16", "op": "Pad", "input": ["block4_2/conv0/relu6", "Const_1"], "attr": {"T": {"type": "DT_FLOAT"}, "Tpaddings": {"type": "DT_INT32"}}}, {"name": "block4_2/conv1/conv2d", "op": "FusedDepthwiseConv2dNative", "input": ["Pad_16", "block4_2/conv1/weights", "block4_2/conv1/biases"], "attr": {"padding": {"s": "VkFMSUQ="}, "data_format": {"s": "TkhXQw=="}, "num_args": {"i": "1"}, "explicit_paddings": {"list": {}}, "dilations": {"list": {"i": ["1", "1", "1", "1"]}}, "T": {"type": "DT_FLOAT"}, "fused_ops": {"list": {"s": ["Qmlhc0FkZA==", "UmVsdTY="]}}, "strides": {"list": {"i": ["1", "1", "1", "1"]}}}}, {"name": "block4_2/se/pool", "op": "Mean", "input": ["block4_2/conv1/conv2d", "block4_2/se/pool/reduction_indices"], "attr": {"Tidx": {"type": "DT_INT32"}, "T": {"type": "DT_FLOAT"}, "keep_dims": {"b": true}}}, {"name": "block4_2/se/conv0/relu6", "op": "_FusedConv2D", "input": ["block4_2/se/pool", "block4_2/se/conv0/weights", "block4_2/se/conv0/biases"], "device": "/device:CPU:0", "attr": {"data_format": {"s": "TkhXQw=="}, "explicit_paddings": {"list": {}}, "fused_ops": {"list": {"s": ["Qmlhc0FkZA==", "UmVsdTY="]}}, "strides": {"list": {"i": ["1", "1", "1", "1"]}}, "T": {"type": "DT_FLOAT"}, "use_cudnn_on_gpu": {"b": true}, "num_args": {"i": "1"}, "padding": {"s": "VkFMSUQ="}, "dilations": {"list": {"i": ["1", "1", "1", "1"]}}, "epsilon": {"f": 0.0}}}, {"name": "block4_2/se/conv1/biasadd", "op": "_FusedConv2D", "input": ["block4_2/se/conv0/relu6", "block4_2/se/conv1/weights", "block4_2/se/conv1/biases"], "device": "/device:CPU:0", "attr": {"fused_ops": {"list": {"s": ["Qmlhc0FkZA=="]}}, "T": {"type": "DT_FLOAT"}, "use_cudnn_on_gpu": {"b": true}, "data_format": {"s": "TkhXQw=="}, "strides": {"list": {"i": ["1", "1", "1", "1"]}}, "padding": {"s": "VkFMSUQ="}, "num_args": {"i": "1"}, "epsilon": {"f": 0.0}, "dilations": {"list": {"i": ["1", "1", "1", "1"]}}, "explicit_paddings": {"list": {}}}}, {"name": "block4_2/se/sigmoid/add", "op": "Add", "input": ["block4_2/se/conv1/biasadd", "scalar_3"], "attr": {"T": {"type": "DT_FLOAT"}}}, {"name": "block4_2/se/sigmoid/relu6", "op": "Relu6", "input": ["block4_2/se/sigmoid/add"], "attr": {"T": {"type": "DT_FLOAT"}}}, {"name": "block4_2/se/sigmoid", "op": "Mul", "input": ["ConstantFolding/block4_2/se/sigmoid_recip", "block4_2/se/sigmoid/relu6"], "attr": {"_grappler_ArithmeticOptimizer_MinimizeBroadcasts": {"b": true}, "T": {"type": "DT_FLOAT"}}}, {"name": "block4_2/se", "op": "Mul", "input": ["block4_2/se/sigmoid", "block4_2/conv1/conv2d"], "attr": {"_grappler_ArithmeticOptimizer_MinimizeBroadcasts": {"b": true}, "T": {"type": "DT_FLOAT"}}}, {"name": "block4_2/conv2/biasadd", "op": "_FusedConv2D", "input": ["block4_2/se", "block4_2/conv2/weights", "block4_2/conv2/biases"], "device": "/device:CPU:0", "attr": {"data_format": {"s": "TkhXQw=="}, "strides": {"list": {"i": ["1", "1", "1", "1"]}}, "padding": {"s": "VkFMSUQ="}, "num_args": {"i": "1"}, "dilations": {"list": {"i": ["1", "1", "1", "1"]}}, "epsilon": {"f": 0.0}, "T": {"type": "DT_FLOAT"}, "fused_ops": {"list": {"s": ["Qmlhc0FkZA=="]}}, "use_cudnn_on_gpu": {"b": true}, "explicit_paddings": {"list": {}}}}, {"name": "block4_2/add", "op": "Add", "input": ["block4_2/conv2/biasadd", "block4_1/add"], "attr": {"T": {"type": "DT_FLOAT"}}}, {"name": "block4_3/conv0/relu6", "op": "_FusedConv2D", "input": ["block4_2/add", "block4_3/conv0/weights", "block4_3/conv0/biases"], "device": "/device:CPU:0", "attr": {"epsilon": {"f": 0.0}, "dilations": {"list": {"i": ["1", "1", "1", "1"]}}, "fused_ops": {"list": {"s": ["Qmlhc0FkZA==", "UmVsdTY="]}}, "strides": {"list": {"i": ["1", "1", "1", "1"]}}, "padding": {"s": "VkFMSUQ="}, "data_format": {"s": "TkhXQw=="}, "use_cudnn_on_gpu": {"b": true}, "num_args": {"i": "1"}, "T": {"type": "DT_FLOAT"}, "explicit_paddings": {"list": {}}}}, {"name": "Pad_17", "op": "Pad", "input": ["block4_3/conv0/relu6", "Const_1"], "attr": {"Tpaddings": {"type": "DT_INT32"}, "T": {"type": "DT_FLOAT"}}}, {"name": "block4_3/conv1/conv2d", "op": "FusedDepthwiseConv2dNative", "input": ["Pad_17", "block4_3/conv1/weights", "block4_3/conv1/biases"], "attr": {"explicit_paddings": {"list": {}}, "num_args": {"i": "1"}, "data_format": {"s": "TkhXQw=="}, "T": {"type": "DT_FLOAT"}, "dilations": {"list": {"i": ["1", "1", "1", "1"]}}, "fused_ops": {"list": {"s": ["Qmlhc0FkZA==", "UmVsdTY="]}}, "strides": {"list": {"i": ["1", "1", "1", "1"]}}, "padding": {"s": "VkFMSUQ="}}}, {"name": "block4_3/se/pool", "op": "Mean", "input": ["block4_3/conv1/conv2d", "block4_3/se/pool/reduction_indices"], "attr": {"Tidx": {"type": "DT_INT32"}, "keep_dims": {"b": true}, "T": {"type": "DT_FLOAT"}}}, {"name": "block4_3/se/conv0/relu6", "op": "_FusedConv2D", "input": ["block4_3/se/pool", "block4_3/se/conv0/weights", "block4_3/se/conv0/biases"], "device": "/device:CPU:0", "attr": {"T": {"type": "DT_FLOAT"}, "num_args": {"i": "1"}, "epsilon": {"f": 0.0}, "dilations": {"list": {"i": ["1", "1", "1", "1"]}}, "use_cudnn_on_gpu": {"b": true}, "strides": {"list": {"i": ["1", "1", "1", "1"]}}, "padding": {"s": "VkFMSUQ="}, "data_format": {"s": "TkhXQw=="}, "explicit_paddings": {"list": {}}, "fused_ops": {"list": {"s": ["Qmlhc0FkZA==", "UmVsdTY="]}}}}, {"name": "block4_3/se/conv1/biasadd", "op": "_FusedConv2D", "input": ["block4_3/se/conv0/relu6", "block4_3/se/conv1/weights", "block4_3/se/conv1/biases"], "device": "/device:CPU:0", "attr": {"num_args": {"i": "1"}, "explicit_paddings": {"list": {}}, "fused_ops": {"list": {"s": ["Qmlhc0FkZA=="]}}, "padding": {"s": "VkFMSUQ="}, "use_cudnn_on_gpu": {"b": true}, "dilations": {"list": {"i": ["1", "1", "1", "1"]}}, "strides": {"list": {"i": ["1", "1", "1", "1"]}}, "epsilon": {"f": 0.0}, "data_format": {"s": "TkhXQw=="}, "T": {"type": "DT_FLOAT"}}}, {"name": "block4_3/se/sigmoid/add", "op": "Add", "input": ["block4_3/se/conv1/biasadd", "scalar_3"], "attr": {"T": {"type": "DT_FLOAT"}}}, {"name": "block4_3/se/sigmoid/relu6", "op": "Relu6", "input": ["block4_3/se/sigmoid/add"], "attr": {"T": {"type": "DT_FLOAT"}}}, {"name": "block4_3/se/sigmoid", "op": "Mul", "input": ["ConstantFolding/block4_3/se/sigmoid_recip", "block4_3/se/sigmoid/relu6"], "attr": {"_grappler_ArithmeticOptimizer_MinimizeBroadcasts": {"b": true}, "T": {"type": "DT_FLOAT"}}}, {"name": "block4_3/se", "op": "Mul", "input": ["block4_3/se/sigmoid", "block4_3/conv1/conv2d"], "attr": {"T": {"type": "DT_FLOAT"}, "_grappler_ArithmeticOptimizer_MinimizeBroadcasts": {"b": true}}}, {"name": "block4_3/conv2/biasadd", "op": "_FusedConv2D", "input": ["block4_3/se", "block4_3/conv2/weights", "block4_3/conv2/biases"], "device": "/device:CPU:0", "attr": {"fused_ops": {"list": {"s": ["Qmlhc0FkZA=="]}}, "num_args": {"i": "1"}, "strides": {"list": {"i": ["1", "1", "1", "1"]}}, "data_format": {"s": "TkhXQw=="}, "use_cudnn_on_gpu": {"b": true}, "padding": {"s": "VkFMSUQ="}, "explicit_paddings": {"list": {}}, "epsilon": {"f": 0.0}, "T": {"type": "DT_FLOAT"}, "dilations": {"list": {"i": ["1", "1", "1", "1"]}}}}, {"name": "block4_3/add", "op": "Add", "input": ["block4_3/conv2/biasadd", "block4_2/add"], "attr": {"T": {"type": "DT_FLOAT"}}}, {"name": "block4_4/conv0/relu6", "op": "_FusedConv2D", "input": ["block4_3/add", "block4_4/conv0/weights", "block4_4/conv0/biases"], "device": "/device:CPU:0", "attr": {"padding": {"s": "VkFMSUQ="}, "T": {"type": "DT_FLOAT"}, "data_format": {"s": "TkhXQw=="}, "use_cudnn_on_gpu": {"b": true}, "strides": {"list": {"i": ["1", "1", "1", "1"]}}, "explicit_paddings": {"list": {}}, "dilations": {"list": {"i": ["1", "1", "1", "1"]}}, "num_args": {"i": "1"}, "epsilon": {"f": 0.0}, "fused_ops": {"list": {"s": ["Qmlhc0FkZA==", "UmVsdTY="]}}}}, {"name": "Pad_18", "op": "Pad", "input": ["block4_4/conv0/relu6", "Const_1"], "attr": {"Tpaddings": {"type": "DT_INT32"}, "T": {"type": "DT_FLOAT"}}}, {"name": "block4_4/conv1/conv2d", "op": "FusedDepthwiseConv2dNative", "input": ["Pad_18", "block4_4/conv1/weights", "block4_4/conv1/biases"], "attr": {"data_format": {"s": "TkhXQw=="}, "fused_ops": {"list": {"s": ["Qmlhc0FkZA==", "UmVsdTY="]}}, "strides": {"list": {"i": ["1", "1", "1", "1"]}}, "T": {"type": "DT_FLOAT"}, "dilations": {"list": {"i": ["1", "1", "1", "1"]}}, "padding": {"s": "VkFMSUQ="}, "explicit_paddings": {"list": {}}, "num_args": {"i": "1"}}}, {"name": "block4_4/se/pool", "op": "Mean", "input": ["block4_4/conv1/conv2d", "block4_4/se/pool/reduction_indices"], "attr": {"Tidx": {"type": "DT_INT32"}, "keep_dims": {"b": true}, "T": {"type": "DT_FLOAT"}}}, {"name": "block4_4/se/conv0/relu6", "op": "_FusedConv2D", "input": ["block4_4/se/pool", "block4_4/se/conv0/weights", "block4_4/se/conv0/biases"], "device": "/device:CPU:0", "attr": {"T": {"type": "DT_FLOAT"}, "dilations": {"list": {"i": ["1", "1", "1", "1"]}}, "use_cudnn_on_gpu": {"b": true}, "explicit_paddings": {"list": {}}, "num_args": {"i": "1"}, "fused_ops": {"list": {"s": ["Qmlhc0FkZA==", "UmVsdTY="]}}, "data_format": {"s": "TkhXQw=="}, "padding": {"s": "VkFMSUQ="}, "strides": {"list": {"i": ["1", "1", "1", "1"]}}, "epsilon": {"f": 0.0}}}, {"name": "block4_4/se/conv1/biasadd", "op": "_FusedConv2D", "input": ["block4_4/se/conv0/relu6", "block4_4/se/conv1/weights", "block4_4/se/conv1/biases"], "device": "/device:CPU:0", "attr": {"T": {"type": "DT_FLOAT"}, "explicit_paddings": {"list": {}}, "fused_ops": {"list": {"s": ["Qmlhc0FkZA=="]}}, "dilations": {"list": {"i": ["1", "1", "1", "1"]}}, "padding": {"s": "VkFMSUQ="}, "num_args": {"i": "1"}, "strides": {"list": {"i": ["1", "1", "1", "1"]}}, "use_cudnn_on_gpu": {"b": true}, "data_format": {"s": "TkhXQw=="}, "epsilon": {"f": 0.0}}}, {"name": "block4_4/se/sigmoid/add", "op": "Add", "input": ["block4_4/se/conv1/biasadd", "scalar_3"], "attr": {"T": {"type": "DT_FLOAT"}}}, {"name": "block4_4/se/sigmoid/relu6", "op": "Relu6", "input": ["block4_4/se/sigmoid/add"], "attr": {"T": {"type": "DT_FLOAT"}}}, {"name": "block4_4/se/sigmoid", "op": "Mul", "input": ["ConstantFolding/block4_4/se/sigmoid_recip", "block4_4/se/sigmoid/relu6"], "attr": {"T": {"type": "DT_FLOAT"}, "_grappler_ArithmeticOptimizer_MinimizeBroadcasts": {"b": true}}}, {"name": "block4_4/se", "op": "Mul", "input": ["block4_4/se/sigmoid", "block4_4/conv1/conv2d"], "attr": {"T": {"type": "DT_FLOAT"}, "_grappler_ArithmeticOptimizer_MinimizeBroadcasts": {"b": true}}}, {"name": "block4_4/conv2/biasadd", "op": "_FusedConv2D", "input": ["block4_4/se", "block4_4/conv2/weights", "block4_4/conv2/biases"], "device": "/device:CPU:0", "attr": {"use_cudnn_on_gpu": {"b": true}, "T": {"type": "DT_FLOAT"}, "padding": {"s": "VkFMSUQ="}, "explicit_paddings": {"list": {}}, "dilations": {"list": {"i": ["1", "1", "1", "1"]}}, "data_format": {"s": "TkhXQw=="}, "epsilon": {"f": 0.0}, "num_args": {"i": "1"}, "strides": {"list": {"i": ["1", "1", "1", "1"]}}, "fused_ops": {"list": {"s": ["Qmlhc0FkZA=="]}}}}, {"name": "block4_4/add", "op": "Add", "input": ["block4_4/conv2/biasadd", "block4_3/add"], "attr": {"T": {"type": "DT_FLOAT"}}}, {"name": "block5_0/conv0/relu6", "op": "_FusedConv2D", "input": ["block4_4/add", "block5_0/conv0/weights", "block5_0/conv0/biases"], "device": "/device:CPU:0", "attr": {"data_format": {"s": "TkhXQw=="}, "fused_ops": {"list": {"s": ["Qmlhc0FkZA==", "UmVsdTY="]}}, "use_cudnn_on_gpu": {"b": true}, "dilations": {"list": {"i": ["1", "1", "1", "1"]}}, "strides": {"list": {"i": ["1", "1", "1", "1"]}}, "epsilon": {"f": 0.0}, "padding": {"s": "VkFMSUQ="}, "num_args": {"i": "1"}, "explicit_paddings": {"list": {}}, "T": {"type": "DT_FLOAT"}}}, {"name": "Pad_19", "op": "Pad", "input": ["block5_0/conv0/relu6", "Const_1"], "attr": {"T": {"type": "DT_FLOAT"}, "Tpaddings": {"type": "DT_INT32"}}}, {"name": "block5_0/conv1/conv2d", "op": "FusedDepthwiseConv2dNative", "input": ["Pad_19", "block5_0/conv1/weights", "block5_0/conv1/biases"], "attr": {"data_format": {"s": "TkhXQw=="}, "strides": {"list": {"i": ["1", "2", "2", "1"]}}, "padding": {"s": "VkFMSUQ="}, "T": {"type": "DT_FLOAT"}, "dilations": {"list": {"i": ["1", "1", "1", "1"]}}, "num_args": {"i": "1"}, "fused_ops": {"list": {"s": ["Qmlhc0FkZA==", "UmVsdTY="]}}, "explicit_paddings": {"list": {}}}}, {"name": "block5_0/se/pool", "op": "Mean", "input": ["block5_0/conv1/conv2d", "block5_0/se/pool/reduction_indices"], "attr": {"Tidx": {"type": "DT_INT32"}, "T": {"type": "DT_FLOAT"}, "keep_dims": {"b": true}}}, {"name": "block5_0/se/conv0/relu6", "op": "_FusedConv2D", "input": ["block5_0/se/pool", "block5_0/se/conv0/weights", "block5_0/se/conv0/biases"], "device": "/device:CPU:0", "attr": {"T": {"type": "DT_FLOAT"}, "explicit_paddings": {"list": {}}, "data_format": {"s": "TkhXQw=="}, "strides": {"list": {"i": ["1", "1", "1", "1"]}}, "dilations": {"list": {"i": ["1", "1", "1", "1"]}}, "use_cudnn_on_gpu": {"b": true}, "epsilon": {"f": 0.0}, "num_args": {"i": "1"}, "fused_ops": {"list": {"s": ["Qmlhc0FkZA==", "UmVsdTY="]}}, "padding": {"s": "VkFMSUQ="}}}, {"name": "block5_0/se/conv1/biasadd", "op": "_FusedConv2D", "input": ["block5_0/se/conv0/relu6", "block5_0/se/conv1/weights", "block5_0/se/conv1/biases"], "device": "/device:CPU:0", "attr": {"strides": {"list": {"i": ["1", "1", "1", "1"]}}, "fused_ops": {"list": {"s": ["Qmlhc0FkZA=="]}}, "data_format": {"s": "TkhXQw=="}, "epsilon": {"f": 0.0}, "num_args": {"i": "1"}, "T": {"type": "DT_FLOAT"}, "dilations": {"list": {"i": ["1", "1", "1", "1"]}}, "explicit_paddings": {"list": {}}, "padding": {"s": "VkFMSUQ="}, "use_cudnn_on_gpu": {"b": true}}}, {"name": "block5_0/se/sigmoid/add", "op": "Add", "input": ["block5_0/se/conv1/biasadd", "scalar_3"], "attr": {"T": {"type": "DT_FLOAT"}}}, {"name": "block5_0/se/sigmoid/relu6", "op": "Relu6", "input": ["block5_0/se/sigmoid/add"], "attr": {"T": {"type": "DT_FLOAT"}}}, {"name": "block5_0/se/sigmoid", "op": "Mul", "input": ["ConstantFolding/block5_0/se/sigmoid_recip", "block5_0/se/sigmoid/relu6"], "attr": {"_grappler_ArithmeticOptimizer_MinimizeBroadcasts": {"b": true}, "T": {"type": "DT_FLOAT"}}}, {"name": "block5_0/se", "op": "Mul", "input": ["block5_0/se/sigmoid", "block5_0/conv1/conv2d"], "attr": {"_grappler_ArithmeticOptimizer_MinimizeBroadcasts": {"b": true}, "T": {"type": "DT_FLOAT"}}}, {"name": "block5_0/conv2/biasadd", "op": "_FusedConv2D", "input": ["block5_0/se", "block5_0/conv2/weights", "block5_0/conv2/biases"], "device": "/device:CPU:0", "attr": {"num_args": {"i": "1"}, "dilations": {"list": {"i": ["1", "1", "1", "1"]}}, "fused_ops": {"list": {"s": ["Qmlhc0FkZA=="]}}, "strides": {"list": {"i": ["1", "1", "1", "1"]}}, "explicit_paddings": {"list": {}}, "T": {"type": "DT_FLOAT"}, "padding": {"s": "VkFMSUQ="}, "data_format": {"s": "TkhXQw=="}, "use_cudnn_on_gpu": {"b": true}, "epsilon": {"f": 0.0}}}, {"name": "block5_1/conv0/relu6", "op": "_FusedConv2D", "input": ["block5_0/conv2/biasadd", "block5_1/conv0/weights", "block5_1/conv0/biases"], "device": "/device:CPU:0", "attr": {"dilations": {"list": {"i": ["1", "1", "1", "1"]}}, "data_format": {"s": "TkhXQw=="}, "padding": {"s": "VkFMSUQ="}, "fused_ops": {"list": {"s": ["Qmlhc0FkZA==", "UmVsdTY="]}}, "use_cudnn_on_gpu": {"b": true}, "T": {"type": "DT_FLOAT"}, "strides": {"list": {"i": ["1", "1", "1", "1"]}}, "num_args": {"i": "1"}, "epsilon": {"f": 0.0}, "explicit_paddings": {"list": {}}}}, {"name": "Pad_20", "op": "Pad", "input": ["block5_1/conv0/relu6", "Const_1"], "attr": {"Tpaddings": {"type": "DT_INT32"}, "T": {"type": "DT_FLOAT"}}}, {"name": "block5_1/conv1/conv2d", "op": "FusedDepthwiseConv2dNative", "input": ["Pad_20", "block5_1/conv1/weights", "block5_1/conv1/biases"], "attr": {"explicit_paddings": {"list": {}}, "dilations": {"list": {"i": ["1", "1", "1", "1"]}}, "T": {"type": "DT_FLOAT"}, "num_args": {"i": "1"}, "data_format": {"s": "TkhXQw=="}, "strides": {"list": {"i": ["1", "1", "1", "1"]}}, "fused_ops": {"list": {"s": ["Qmlhc0FkZA==", "UmVsdTY="]}}, "padding": {"s": "VkFMSUQ="}}}, {"name": "block5_1/se/pool", "op": "Mean", "input": ["block5_1/conv1/conv2d", "block5_1/se/pool/reduction_indices"], "attr": {"T": {"type": "DT_FLOAT"}, "Tidx": {"type": "DT_INT32"}, "keep_dims": {"b": true}}}, {"name": "block5_1/se/conv0/relu6", "op": "_FusedConv2D", "input": ["block5_1/se/pool", "block5_1/se/conv0/weights", "block5_1/se/conv0/biases"], "device": "/device:CPU:0", "attr": {"fused_ops": {"list": {"s": ["Qmlhc0FkZA==", "UmVsdTY="]}}, "use_cudnn_on_gpu": {"b": true}, "data_format": {"s": "TkhXQw=="}, "explicit_paddings": {"list": {}}, "padding": {"s": "VkFMSUQ="}, "epsilon": {"f": 0.0}, "strides": {"list": {"i": ["1", "1", "1", "1"]}}, "num_args": {"i": "1"}, "dilations": {"list": {"i": ["1", "1", "1", "1"]}}, "T": {"type": "DT_FLOAT"}}}, {"name": "block5_1/se/conv1/biasadd", "op": "_FusedConv2D", "input": ["block5_1/se/conv0/relu6", "block5_1/se/conv1/weights", "block5_1/se/conv1/biases"], "device": "/device:CPU:0", "attr": {"data_format": {"s": "TkhXQw=="}, "use_cudnn_on_gpu": {"b": true}, "fused_ops": {"list": {"s": ["Qmlhc0FkZA=="]}}, "num_args": {"i": "1"}, "explicit_paddings": {"list": {}}, "dilations": {"list": {"i": ["1", "1", "1", "1"]}}, "T": {"type": "DT_FLOAT"}, "padding": {"s": "VkFMSUQ="}, "epsilon": {"f": 0.0}, "strides": {"list": {"i": ["1", "1", "1", "1"]}}}}, {"name": "block5_1/se/sigmoid/add", "op": "Add", "input": ["block5_1/se/conv1/biasadd", "scalar_3"], "attr": {"T": {"type": "DT_FLOAT"}}}, {"name": "block5_1/se/sigmoid/relu6", "op": "Relu6", "input": ["block5_1/se/sigmoid/add"], "attr": {"T": {"type": "DT_FLOAT"}}}, {"name": "block5_1/se/sigmoid", "op": "Mul", "input": ["ConstantFolding/block5_1/se/sigmoid_recip", "block5_1/se/sigmoid/relu6"], "attr": {"_grappler_ArithmeticOptimizer_MinimizeBroadcasts": {"b": true}, "T": {"type": "DT_FLOAT"}}}, {"name": "block5_1/se", "op": "Mul", "input": ["block5_1/se/sigmoid", "block5_1/conv1/conv2d"], "attr": {"T": {"type": "DT_FLOAT"}, "_grappler_ArithmeticOptimizer_MinimizeBroadcasts": {"b": true}}}, {"name": "block5_1/conv2/biasadd", "op": "_FusedConv2D", "input": ["block5_1/se", "block5_1/conv2/weights", "block5_1/conv2/biases"], "device": "/device:CPU:0", "attr": {"dilations": {"list": {"i": ["1", "1", "1", "1"]}}, "data_format": {"s": "TkhXQw=="}, "strides": {"list": {"i": ["1", "1", "1", "1"]}}, "fused_ops": {"list": {"s": ["Qmlhc0FkZA=="]}}, "padding": {"s": "VkFMSUQ="}, "explicit_paddings": {"list": {}}, "num_args": {"i": "1"}, "use_cudnn_on_gpu": {"b": true}, "T": {"type": "DT_FLOAT"}, "epsilon": {"f": 0.0}}}, {"name": "block5_1/add", "op": "Add", "input": ["block5_1/conv2/biasadd", "block5_0/conv2/biasadd"], "attr": {"T": {"type": "DT_FLOAT"}}}, {"name": "block5_2/conv0/relu6", "op": "_FusedConv2D", "input": ["block5_1/add", "block5_2/conv0/weights", "block5_2/conv0/biases"], "device": "/device:CPU:0", "attr": {"epsilon": {"f": 0.0}, "explicit_paddings": {"list": {}}, "padding": {"s": "VkFMSUQ="}, "num_args": {"i": "1"}, "strides": {"list": {"i": ["1", "1", "1", "1"]}}, "data_format": {"s": "TkhXQw=="}, "T": {"type": "DT_FLOAT"}, "fused_ops": {"list": {"s": ["Qmlhc0FkZA==", "UmVsdTY="]}}, "use_cudnn_on_gpu": {"b": true}, "dilations": {"list": {"i": ["1", "1", "1", "1"]}}}}, {"name": "Pad_21", "op": "Pad", "input": ["block5_2/conv0/relu6", "Const_1"], "attr": {"Tpaddings": {"type": "DT_INT32"}, "T": {"type": "DT_FLOAT"}}}, {"name": "block5_2/conv1/conv2d", "op": "FusedDepthwiseConv2dNative", "input": ["Pad_21", "block5_2/conv1/weights", "block5_2/conv1/biases"], "attr": {"strides": {"list": {"i": ["1", "1", "1", "1"]}}, "fused_ops": {"list": {"s": ["Qmlhc0FkZA==", "UmVsdTY="]}}, "T": {"type": "DT_FLOAT"}, "data_format": {"s": "TkhXQw=="}, "num_args": {"i": "1"}, "explicit_paddings": {"list": {}}, "dilations": {"list": {"i": ["1", "1", "1", "1"]}}, "padding": {"s": "VkFMSUQ="}}}, {"name": "block5_2/se/pool", "op": "Mean", "input": ["block5_2/conv1/conv2d", "block5_2/se/pool/reduction_indices"], "attr": {"T": {"type": "DT_FLOAT"}, "keep_dims": {"b": true}, "Tidx": {"type": "DT_INT32"}}}, {"name": "block5_2/se/conv0/relu6", "op": "_FusedConv2D", "input": ["block5_2/se/pool", "block5_2/se/conv0/weights", "block5_2/se/conv0/biases"], "device": "/device:CPU:0", "attr": {"fused_ops": {"list": {"s": ["Qmlhc0FkZA==", "UmVsdTY="]}}, "explicit_paddings": {"list": {}}, "T": {"type": "DT_FLOAT"}, "epsilon": {"f": 0.0}, "num_args": {"i": "1"}, "use_cudnn_on_gpu": {"b": true}, "padding": {"s": "VkFMSUQ="}, "strides": {"list": {"i": ["1", "1", "1", "1"]}}, "dilations": {"list": {"i": ["1", "1", "1", "1"]}}, "data_format": {"s": "TkhXQw=="}}}, {"name": "block5_2/se/conv1/biasadd", "op": "_FusedConv2D", "input": ["block5_2/se/conv0/relu6", "block5_2/se/conv1/weights", "block5_2/se/conv1/biases"], "device": "/device:CPU:0", "attr": {"num_args": {"i": "1"}, "explicit_paddings": {"list": {}}, "data_format": {"s": "TkhXQw=="}, "padding": {"s": "VkFMSUQ="}, "use_cudnn_on_gpu": {"b": true}, "fused_ops": {"list": {"s": ["Qmlhc0FkZA=="]}}, "dilations": {"list": {"i": ["1", "1", "1", "1"]}}, "epsilon": {"f": 0.0}, "T": {"type": "DT_FLOAT"}, "strides": {"list": {"i": ["1", "1", "1", "1"]}}}}, {"name": "block5_2/se/sigmoid/add", "op": "Add", "input": ["block5_2/se/conv1/biasadd", "scalar_3"], "attr": {"T": {"type": "DT_FLOAT"}}}, {"name": "block5_2/se/sigmoid/relu6", "op": "Relu6", "input": ["block5_2/se/sigmoid/add"], "attr": {"T": {"type": "DT_FLOAT"}}}, {"name": "block5_2/se/sigmoid", "op": "Mul", "input": ["ConstantFolding/block5_2/se/sigmoid_recip", "block5_2/se/sigmoid/relu6"], "attr": {"T": {"type": "DT_FLOAT"}, "_grappler_ArithmeticOptimizer_MinimizeBroadcasts": {"b": true}}}, {"name": "block5_2/se", "op": "Mul", "input": ["block5_2/se/sigmoid", "block5_2/conv1/conv2d"], "attr": {"T": {"type": "DT_FLOAT"}, "_grappler_ArithmeticOptimizer_MinimizeBroadcasts": {"b": true}}}, {"name": "block5_2/conv2/biasadd", "op": "_FusedConv2D", "input": ["block5_2/se", "block5_2/conv2/weights", "block5_2/conv2/biases"], "device": "/device:CPU:0", "attr": {"strides": {"list": {"i": ["1", "1", "1", "1"]}}, "data_format": {"s": "TkhXQw=="}, "explicit_paddings": {"list": {}}, "epsilon": {"f": 0.0}, "fused_ops": {"list": {"s": ["Qmlhc0FkZA=="]}}, "dilations": {"list": {"i": ["1", "1", "1", "1"]}}, "use_cudnn_on_gpu": {"b": true}, "num_args": {"i": "1"}, "T": {"type": "DT_FLOAT"}, "padding": {"s": "VkFMSUQ="}}}, {"name": "block5_2/add", "op": "Add", "input": ["block5_2/conv2/biasadd", "block5_1/add"], "attr": {"T": {"type": "DT_FLOAT"}}}, {"name": "block5_3/conv0/relu6", "op": "_FusedConv2D", "input": ["block5_2/add", "block5_3/conv0/weights", "block5_3/conv0/biases"], "device": "/device:CPU:0", "attr": {"T": {"type": "DT_FLOAT"}, "epsilon": {"f": 0.0}, "strides": {"list": {"i": ["1", "1", "1", "1"]}}, "data_format": {"s": "TkhXQw=="}, "fused_ops": {"list": {"s": ["Qmlhc0FkZA==", "UmVsdTY="]}}, "padding": {"s": "VkFMSUQ="}, "explicit_paddings": {"list": {}}, "dilations": {"list": {"i": ["1", "1", "1", "1"]}}, "use_cudnn_on_gpu": {"b": true}, "num_args": {"i": "1"}}}, {"name": "Pad_22", "op": "Pad", "input": ["block5_3/conv0/relu6", "Const_1"], "attr": {"T": {"type": "DT_FLOAT"}, "Tpaddings": {"type": "DT_INT32"}}}, {"name": "block5_3/conv1/conv2d", "op": "FusedDepthwiseConv2dNative", "input": ["Pad_22", "block5_3/conv1/weights", "block5_3/conv1/biases"], "attr": {"data_format": {"s": "TkhXQw=="}, "padding": {"s": "VkFMSUQ="}, "fused_ops": {"list": {"s": ["Qmlhc0FkZA==", "UmVsdTY="]}}, "num_args": {"i": "1"}, "strides": {"list": {"i": ["1", "1", "1", "1"]}}, "dilations": {"list": {"i": ["1", "1", "1", "1"]}}, "explicit_paddings": {"list": {}}, "T": {"type": "DT_FLOAT"}}}, {"name": "block5_3/se/pool", "op": "Mean", "input": ["block5_3/conv1/conv2d", "block5_3/se/pool/reduction_indices"], "attr": {"T": {"type": "DT_FLOAT"}, "Tidx": {"type": "DT_INT32"}, "keep_dims": {"b": true}}}, {"name": "block5_3/se/conv0/relu6", "op": "_FusedConv2D", "input": ["block5_3/se/pool", "block5_3/se/conv0/weights", "block5_3/se/conv0/biases"], "device": "/device:CPU:0", "attr": {"fused_ops": {"list": {"s": ["Qmlhc0FkZA==", "UmVsdTY="]}}, "strides": {"list": {"i": ["1", "1", "1", "1"]}}, "use_cudnn_on_gpu": {"b": true}, "num_args": {"i": "1"}, "dilations": {"list": {"i": ["1", "1", "1", "1"]}}, "T": {"type": "DT_FLOAT"}, "epsilon": {"f": 0.0}, "padding": {"s": "VkFMSUQ="}, "explicit_paddings": {"list": {}}, "data_format": {"s": "TkhXQw=="}}}, {"name": "block5_3/se/conv1/biasadd", "op": "_FusedConv2D", "input": ["block5_3/se/conv0/relu6", "block5_3/se/conv1/weights", "block5_3/se/conv1/biases"], "device": "/device:CPU:0", "attr": {"fused_ops": {"list": {"s": ["Qmlhc0FkZA=="]}}, "use_cudnn_on_gpu": {"b": true}, "epsilon": {"f": 0.0}, "padding": {"s": "VkFMSUQ="}, "data_format": {"s": "TkhXQw=="}, "T": {"type": "DT_FLOAT"}, "explicit_paddings": {"list": {}}, "strides": {"list": {"i": ["1", "1", "1", "1"]}}, "num_args": {"i": "1"}, "dilations": {"list": {"i": ["1", "1", "1", "1"]}}}}, {"name": "block5_3/se/sigmoid/add", "op": "Add", "input": ["block5_3/se/conv1/biasadd", "scalar_3"], "attr": {"T": {"type": "DT_FLOAT"}}}, {"name": "block5_3/se/sigmoid/relu6", "op": "Relu6", "input": ["block5_3/se/sigmoid/add"], "attr": {"T": {"type": "DT_FLOAT"}}}, {"name": "block5_3/se/sigmoid", "op": "Mul", "input": ["ConstantFolding/block5_3/se/sigmoid_recip", "block5_3/se/sigmoid/relu6"], "attr": {"T": {"type": "DT_FLOAT"}, "_grappler_ArithmeticOptimizer_MinimizeBroadcasts": {"b": true}}}, {"name": "block5_3/se", "op": "Mul", "input": ["block5_3/se/sigmoid", "block5_3/conv1/conv2d"], "attr": {"_grappler_ArithmeticOptimizer_MinimizeBroadcasts": {"b": true}, "T": {"type": "DT_FLOAT"}}}, {"name": "block5_3/conv2/biasadd", "op": "_FusedConv2D", "input": ["block5_3/se", "block5_3/conv2/weights", "block5_3/conv2/biases"], "device": "/device:CPU:0", "attr": {"use_cudnn_on_gpu": {"b": true}, "explicit_paddings": {"list": {}}, "epsilon": {"f": 0.0}, "dilations": {"list": {"i": ["1", "1", "1", "1"]}}, "T": {"type": "DT_FLOAT"}, "num_args": {"i": "1"}, "data_format": {"s": "TkhXQw=="}, "strides": {"list": {"i": ["1", "1", "1", "1"]}}, "padding": {"s": "VkFMSUQ="}, "fused_ops": {"list": {"s": ["Qmlhc0FkZA=="]}}}}, {"name": "block5_3/add", "op": "Add", "input": ["block5_3/conv2/biasadd", "block5_2/add"], "attr": {"T": {"type": "DT_FLOAT"}}}, {"name": "block5_4/conv0/relu6", "op": "_FusedConv2D", "input": ["block5_3/add", "block5_4/conv0/weights", "block5_4/conv0/biases"], "device": "/device:CPU:0", "attr": {"strides": {"list": {"i": ["1", "1", "1", "1"]}}, "dilations": {"list": {"i": ["1", "1", "1", "1"]}}, "num_args": {"i": "1"}, "T": {"type": "DT_FLOAT"}, "use_cudnn_on_gpu": {"b": true}, "data_format": {"s": "TkhXQw=="}, "fused_ops": {"list": {"s": ["Qmlhc0FkZA==", "UmVsdTY="]}}, "explicit_paddings": {"list": {}}, "padding": {"s": "VkFMSUQ="}, "epsilon": {"f": 0.0}}}, {"name": "Pad_23", "op": "Pad", "input": ["block5_4/conv0/relu6", "Const_1"], "attr": {"T": {"type": "DT_FLOAT"}, "Tpaddings": {"type": "DT_INT32"}}}, {"name": "block5_4/conv1/conv2d", "op": "FusedDepthwiseConv2dNative", "input": ["Pad_23", "block5_4/conv1/weights", "block5_4/conv1/biases"], "attr": {"data_format": {"s": "TkhXQw=="}, "num_args": {"i": "1"}, "padding": {"s": "VkFMSUQ="}, "fused_ops": {"list": {"s": ["Qmlhc0FkZA==", "UmVsdTY="]}}, "strides": {"list": {"i": ["1", "1", "1", "1"]}}, "T": {"type": "DT_FLOAT"}, "explicit_paddings": {"list": {}}, "dilations": {"list": {"i": ["1", "1", "1", "1"]}}}}, {"name": "block5_4/se/pool", "op": "Mean", "input": ["block5_4/conv1/conv2d", "block5_4/se/pool/reduction_indices"], "attr": {"T": {"type": "DT_FLOAT"}, "Tidx": {"type": "DT_INT32"}, "keep_dims": {"b": true}}}, {"name": "block5_4/se/conv0/relu6", "op": "_FusedConv2D", "input": ["block5_4/se/pool", "block5_4/se/conv0/weights", "block5_4/se/conv0/biases"], "device": "/device:CPU:0", "attr": {"strides": {"list": {"i": ["1", "1", "1", "1"]}}, "use_cudnn_on_gpu": {"b": true}, "T": {"type": "DT_FLOAT"}, "explicit_paddings": {"list": {}}, "num_args": {"i": "1"}, "fused_ops": {"list": {"s": ["Qmlhc0FkZA==", "UmVsdTY="]}}, "padding": {"s": "VkFMSUQ="}, "epsilon": {"f": 0.0}, "data_format": {"s": "TkhXQw=="}, "dilations": {"list": {"i": ["1", "1", "1", "1"]}}}}, {"name": "block5_4/se/conv1/biasadd", "op": "_FusedConv2D", "input": ["block5_4/se/conv0/relu6", "block5_4/se/conv1/weights", "block5_4/se/conv1/biases"], "device": "/device:CPU:0", "attr": {"strides": {"list": {"i": ["1", "1", "1", "1"]}}, "num_args": {"i": "1"}, "explicit_paddings": {"list": {}}, "T": {"type": "DT_FLOAT…
, "1"]}}, "T": {"type": "DT_FLOAT"}, "epsilon": {"f": 0.0}, "num_args": {"i": "1"}, "padding": {"s": "VkFMSUQ="}}}, {"name": "block6_1/conv0/relu6", "op": "_FusedConv2D", "input": ["block6_0/conv2/biasadd", "block6_1/conv0/weights", "block6_1/conv0/biases"], "device": "/device:CPU:0", "attr": {"explicit_paddings": {"list": {}}, "num_args": {"i": "1"}, "padding": {"s": "VkFMSUQ="}, "fused_ops": {"list": {"s": ["Qmlhc0FkZA==", "UmVsdTY="]}}, "epsilon": {"f": 0.0}, "use_cudnn_on_gpu": {"b": true}, "T": {"type": "DT_FLOAT"}, "data_format": {"s": "TkhXQw=="}, "strides": {"list": {"i": ["1", "1", "1", "1"]}}, "dilations": {"list": {"i": ["1", "1", "1", "1"]}}}}, {"name": "Pad_26", "op": "Pad", "input": ["block6_1/conv0/relu6", "Const"], "attr": {"Tpaddings": {"type": "DT_INT32"}, "T": {"type": "DT_FLOAT"}}}, {"name": "block6_1/conv1/conv2d", "op": "FusedDepthwiseConv2dNative", "input": ["Pad_26", "block6_1/conv1/weights", "block6_1/conv1/biases"], "attr": {"num_args": {"i": "1"}, "dilations": {"list": {"i": ["1", "1", "1", "1"]}}, "explicit_paddings": {"list": {}}, "data_format": {"s": "TkhXQw=="}, "strides": {"list": {"i": ["1", "1", "1", "1"]}}, "T": {"type": "DT_FLOAT"}, "fused_ops": {"list": {"s": ["Qmlhc0FkZA==", "UmVsdTY="]}}, "padding": {"s": "VkFMSUQ="}}}, {"name": "block6_1/se/pool", "op": "Mean", "input": ["block6_1/conv1/conv2d", "block6_1/se/pool/reduction_indices"], "attr": {"Tidx": {"type": "DT_INT32"}, "T": {"type": "DT_FLOAT"}, "keep_dims": {"b": true}}}, {"name": "block6_1/se/conv0/relu6", "op": "_FusedConv2D", "input": ["block6_1/se/pool", "block6_1/se/conv0/weights", "block6_1/se/conv0/biases"], "device": "/device:CPU:0", "attr": {"fused_ops": {"list": {"s": ["Qmlhc0FkZA==", "UmVsdTY="]}}, "use_cudnn_on_gpu": {"b": true}, "dilations": {"list": {"i": ["1", "1", "1", "1"]}}, "num_args": {"i": "1"}, "data_format": {"s": "TkhXQw=="}, "T": {"type": "DT_FLOAT"}, "epsilon": {"f": 0.0}, "explicit_paddings": {"list": {}}, "strides": {"list": {"i": ["1", "1", "1", "1"]}}, "padding": {"s": "VkFMSUQ="}}}, {"name": "block6_1/se/conv1/biasadd", "op": "_FusedConv2D", "input": ["block6_1/se/conv0/relu6", "block6_1/se/conv1/weights", "block6_1/se/conv1/biases"], "device": "/device:CPU:0", "attr": {"explicit_paddings": {"list": {}}, "strides": {"list": {"i": ["1", "1", "1", "1"]}}, "T": {"type": "DT_FLOAT"}, "padding": {"s": "VkFMSUQ="}, "use_cudnn_on_gpu": {"b": true}, "fused_ops": {"list": {"s": ["Qmlhc0FkZA=="]}}, "dilations": {"list": {"i": ["1", "1", "1", "1"]}}, "num_args": {"i": "1"}, "epsilon": {"f": 0.0}, "data_format": {"s": "TkhXQw=="}}}, {"name": "block6_1/se/sigmoid/add", "op": "Add", "input": ["block6_1/se/conv1/biasadd", "scalar_3"], "attr": {"T": {"type": "DT_FLOAT"}}}, {"name": "block6_1/se/sigmoid/relu6", "op": "Relu6", "input": ["block6_1/se/sigmoid/add"], "attr": {"T": {"type": "DT_FLOAT"}}}, {"name": "block6_1/se/sigmoid", "op": "Mul", "input": ["ConstantFolding/block6_1/se/sigmoid_recip", "block6_1/se/sigmoid/relu6"], "attr": {"T": {"type": "DT_FLOAT"}, "_grappler_ArithmeticOptimizer_MinimizeBroadcasts": {"b": true}}}, {"name": "block6_1/se", "op": "Mul", "input": ["block6_1/se/sigmoid", "block6_1/conv1/conv2d"], "attr": {"T": {"type": "DT_FLOAT"}, "_grappler_ArithmeticOptimizer_MinimizeBroadcasts": {"b": true}}}, {"name": "block6_1/conv2/biasadd", "op": "_FusedConv2D", "input": ["block6_1/se", "block6_1/conv2/weights", "block6_1/conv2/biases"], "device": "/device:CPU:0", "attr": {"num_args": {"i": "1"}, "padding": {"s": "VkFMSUQ="}, "T": {"type": "DT_FLOAT"}, "epsilon": {"f": 0.0}, "explicit_paddings": {"list": {}}, "data_format": {"s": "TkhXQw=="}, "fused_ops": {"list": {"s": ["Qmlhc0FkZA=="]}}, "use_cudnn_on_gpu": {"b": true}, "dilations": {"list": {"i": ["1", "1", "1", "1"]}}, "strides": {"list": {"i": ["1", "1", "1", "1"]}}}}, {"name": "block6_1/add", "op": "Add", "input": ["block6_1/conv2/biasadd", "block6_0/conv2/biasadd"], "attr": {"T": {"type": "DT_FLOAT"}}}, {"name": "conv1/relu6", "op": "_FusedConv2D", "input": ["block6_1/add", "conv1/weights", "conv1/biases"], "device": "/device:CPU:0", "attr": {"data_format": {"s": "TkhXQw=="}, "epsilon": {"f": 0.0}, "strides": {"list": {"i": ["1", "1", "1", "1"]}}, "fused_ops": {"list": {"s": ["Qmlhc0FkZA==", "UmVsdTY="]}}, "T": {"type": "DT_FLOAT"}, "padding": {"s": "VkFMSUQ="}, "use_cudnn_on_gpu": {"b": true}, "explicit_paddings": {"list": {}}, "dilations": {"list": {"i": ["1", "1", "1", "1"]}}, "num_args": {"i": "1"}}}, {"name": "pool", "op": "Mean", "input": ["conv1/relu6", "pool/reduction_indices"], "attr": {"T": {"type": "DT_FLOAT"}, "keep_dims": {"b": true}, "Tidx": {"type": "DT_INT32"}}}, {"name": "flatten", "op": "Squeeze", "input": ["pool"], "attr": {"T": {"type": "DT_FLOAT"}, "squeeze_dims": {"list": {"i": ["1", "2"]}}}}, {"name": "classifier/biasadd", "op": "_FusedMatMul", "input": ["flatten", "classifier/weights", "classifier/biases"], "device": "/device:CPU:0", "attr": {"epsilon": {"f": 0.0}, "transpose_a": {"b": false}, "transpose_b": {"b": false}, "num_args": {"i": "1"}, "T": {"type": "DT_FLOAT"}, "fused_ops": {"list": {"s": ["Qmlhc0FkZA=="]}}}}, {"name": "model_output", "op": "Softmax", "input": ["classifier/biasadd"], "attr": {"T": {"type": "DT_FLOAT"}}}], "library": {}, "versions": {"producer": 134}}, "weightsManifest": [{"paths": ["weights.bin"], "weights": [{"name": "ConstantFolding/block6_1/se/sigmoid_recip", "shape": [], "dtype": "float32", "quantization": {"dtype": "float16", "original_dtype": "float32"}}, {"name": "block6_1/se/pool/reduction_indices", "shape": [2], "dtype": "int32"}, {"name": "block6_1/se/conv0/weights", "shape": [1, 1, 1392, 348], "dtype": "float32", "quantization": {"dtype": "float16", "original_dtype": "float32"}}, {"name": "block6_1/se/conv0/biases", "shape": [348], "dtype": "float32", "quantization": {"dtype": "float16", "original_dtype": "float32"}}, {"name": "block6_1/se/conv1/weights", "shape": [1, 1, 348, 1392], "dtype": "float32", "quantization": {"dtype": "float16", "original_dtype": "float32"}}, {"name": "block6_1/se/conv1/biases", "shape": [1392], "dtype": "float32", "quantization": {"dtype": "float16", "original_dtype": "float32"}}, {"name": "block6_1/conv0/weights", "shape": [1, 1, 384, 1392], "dtype": "float32", "quantization": {"dtype": "float16", "original_dtype": "float32"}}, {"name": "block6_1/conv0/biases", "shape": [1392], "dtype": "float32", "quantization": {"dtype": "float16", "original_dtype": "float32"}}, {"name": "block6_1/conv1/weights", "shape": [3, 3, 1392, 1], "dtype": "float32", "quantization": {"dtype": "float16", "original_dtype": "float32"}}, {"name": "block6_1/conv1/biases", "shape": [1392], "dtype": "float32", "quantization": {"dtype": "float16", "original_dtype": "float32"}}, {"name": "block6_1/conv2/weights", "shape": [1, 1, 1392, 384], "dtype": "float32", "quantization": {"dtype": "float16", "original_dtype": "float32"}}, {"name": "block6_1/conv2/biases", "shape": [384], "dtype": "float32", "quantization": {"dtype": "float16", "original_dtype": "float32"}}, {"name": "ConstantFolding/block6_0/se/sigmoid_recip", "shape": [], "dtype": "float32", "quantization": {"dtype": "float16", "original_dtype": "float32"}}, {"name": "block6_0/se/pool/reduction_indices", "shape": [2], "dtype": "int32"}, {"name": "block6_0/se/conv0/weights", "shape": [1, 1, 1392, 348], "dtype": "float32", "quantization": {"dtype": "float16", "original_dtype": "float32"}}, {"name": "block6_0/se/conv0/biases", "shape": [348], "dtype": "float32", "quantization": {"dtype": "float16", "original_dtype": "float32"}}, {"name": "block6_0/se/conv1/weights", "shape": [1, 1, 348, 1392], "dtype": "float32", "quantization": {"dtype": "float16", "original_dtype": "float32"}}, {"name": "block6_0/se/conv1/biases", "shape": [1392], "dtype": "float32", "quantization": {"dtype": "float16", "original_dtype": "float32"}}, {"name": "ConstantFolding/block5_5/se/sigmoid_recip", "shape": [], "dtype": "float32", "quantization": {"dtype": "float16", "original_dtype": "float32"}}, {"name": "block5_5/se/pool/reduction_indices", "shape": [2], "dtype": "int32"}, {"name": "block5_5/se/conv0/weights", "shape": [1, 1, 816, 204], "dtype": "float32", "quantization": {"dtype": "float16", "original_dtype": "float32"}}, {"name": "block5_5/se/conv0/biases", "shape": [204], "dtype": "float32", "quantization": {"dtype": "float16", "original_dtype": "float32"}}, {"name": "block5_5/se/conv1/weights", "shape": [1, 1, 204, 816], "dtype": "float32", "quantization": {"dtype": "float16", "original_dtype": "float32"}}, {"name": "block5_5/se/conv1/biases", "shape": [816], "dtype": "float32", "quantization": {"dtype": "float16", "original_dtype": "float32"}}, {"name": "block5_5/conv0/weights", "shape": [1, 1, 232, 816], "dtype": "float32", "quantization": {"dtype": "float16", "original_dtype": "float32"}}, {"name": "block5_5/conv0/biases", "shape": [816], "dtype": "float32", "quantization": {"dtype": "float16", "original_dtype": "float32"}}, {"name": "block5_5/conv1/weights", "shape": [5, 5, 816, 1], "dtype": "float32", "quantization": {"dtype": "float16", "original_dtype": "float32"}}, {"name": "block5_5/conv1/biases", "shape": [816], "dtype": "float32", "quantization": {"dtype": "float16", "original_dtype": "float32"}}, {"name": "block5_5/conv2/weights", "shape": [1, 1, 816, 232], "dtype": "float32", "quantization": {"dtype": "float16", "original_dtype": "float32"}}, {"name": "block5_5/conv2/biases", "shape": [232], "dtype": "float32", "quantization": {"dtype": "float16", "original_dtype": "float32"}}, {"name": "ConstantFolding/block5_4/se/sigmoid_recip", "shape": [], "dtype": "float32", "quantization": {"dtype": "float16", "original_dtype": "float32"}}, {"name": "block5_4/se/pool/reduction_indices", "shape": [2], "dtype": "int32"}, {"name": "block5_4/se/conv0/weights", "shape": [1, 1, 816, 204], "dtype": "float32", "quantization": {"dtype": "float16", "original_dtype": "float32"}}, {"name": "block5_4/se/conv0/biases", "shape": [204], "dtype": "float32", "quantization": {"dtype": "float16", "original_dtype": "float32"}}, {"name": "block5_4/se/conv1/weights", "shape": [1, 1, 204, 816], "dtype": "float32", "quantization": {"dtype": "float16", "original_dtype": "float32"}}, {"name": "block5_4/se/conv1/biases", "shape": [816], "dtype": "float32", "quantization": {"dtype": "float16", "original_dtype": "float32"}}, {"name": "block5_4/conv0/weights", "shape": [1, 1, 232, 816], "dtype": "float32", "quantization": {"dtype": "float16", "original_dtype": "float32"}}, {"name": "block5_4/conv0/biases", "shape": [816], "dtype": "float32", "quantization": {"dtype": "float16", "original_dtype": "float32"}}, {"name": "block5_4/conv1/weights", "shape": [5, 5, 816, 1], "dtype": "float32", "quantization": {"dtype": "float16", "original_dtype": "float32"}}, {"name": "block5_4/conv1/biases", "shape": [816], "dtype": "float32", "quantization": {"dtype": "float16", "original_dtype": "float32"}}, {"name": "block5_4/conv2/weights", "shape": [1, 1, 816, 232], "dtype": "float32", "quantization": {"dtype": "float16", "original_dtype": "float32"}}, {"name": "block5_4/conv2/biases", "shape": [232], "dtype": "float32", "quantization": {"dtype": "float16", "original_dtype": "float32"}}, {"name": "ConstantFolding/block5_3/se/sigmoid_recip", "shape": [], "dtype": "float32", "quantization": {"dtype": "float16", "original_dtype": "float32"}}, {"name": "block5_3/se/pool/reduction_indices", "shape": [2], "dtype": "int32"}, {"name": "block5_3/se/conv0/weights", "shape": [1, 1, 816, 204], "dtype": "float32", "quantization": {"dtype": "float16", "original_dtype": "float32"}}, {"name": "block5_3/se/conv0/biases", "shape": [204], "dtype": "float32", "quantization": {"dtype": "float16", "original_dtype": "float32"}}, {"name": "block5_3/se/conv1/weights", "shape": [1, 1, 204, 816], "dtype": "float32", "quantization": {"dtype": "float16", "original_dtype": "float32"}}, {"name": "block5_3/se/conv1/biases", "shape": [816], "dtype": "float32", "quantization": {"dtype": "float16", "original_dtype": "float32"}}, {"name": "block5_3/conv0/weights", "shape": [1, 1, 232, 816], "dtype": "float32", "quantization": {"dtype": "float16", "original_dtype": "float32"}}, {"name": "block5_3/conv0/biases", "shape": [816], "dtype": "float32", "quantization": {"dtype": "float16", "original_dtype": "float32"}}, {"name": "block5_3/conv1/weights", "shape": [5, 5, 816, 1], "dtype": "float32", "quantization": {"dtype": "float16", "original_dtype": "float32"}}, {"name": "block5_3/conv1/biases", "shape": [816], "dtype": "float32", "quantization": {"dtype": "float16", "original_dtype": "float32"}}, {"name": "block5_3/conv2/weights", "shape": [1, 1, 816, 232], "dtype": "float32", "quantization": {"dtype": "float16", "original_dtype": "float32"}}, {"name": "block5_3/conv2/biases", "shape": [232], "dtype": "float32", "quantization": {"dtype": "float16", "original_dtype": "float32"}}, {"name": "ConstantFolding/block5_2/se/sigmoid_recip", "shape": [], "dtype": "float32", "quantization": {"dtype": "float16", "original_dtype": "float32"}}, {"name": "block5_2/se/pool/reduction_indices", "shape": [2], "dtype": "int32"}, {"name": "block5_2/se/conv0/weights", "shape": [1, 1, 816, 204], "dtype": "float32", "quantization": {"dtype": "float16", "original_dtype": "float32"}}, {"name": "block5_2/se/conv0/biases", "shape": [204], "dtype": "float32", "quantization": {"dtype": "float16", "original_dtype": "float32"}}, {"name": "block5_2/se/conv1/weights", "shape": [1, 1, 204, 816], "dtype": "float32", "quantization": {"dtype": "float16", "original_dtype": "float32"}}, {"name": "block5_2/se/conv1/biases", "shape": [816], "dtype": "float32", "quantization": {"dtype": "float16", "original_dtype": "float32"}}, {"name": "block5_2/conv0/weights", "shape": [1, 1, 232, 816], "dtype": "float32", "quantization": {"dtype": "float16", "original_dtype": "float32"}}, {"name": "block5_2/conv0/biases", "shape": [816], "dtype": "float32", "quantization": {"dtype": "float16", "original_dtype": "float32"}}, {"name": "block5_2/conv1/weights", "shape": [5, 5, 816, 1], "dtype": "float32", "quantization": {"dtype": "float16", "original_dtype": "float32"}}, {"name": "block5_2/conv1/biases", "shape": [816], "dtype": "float32", "quantization": {"dtype": "float16", "original_dtype": "float32"}}, {"name": "block5_2/conv2/weights", "shape": [1, 1, 816, 232], "dtype": "float32", "quantization": {"dtype": "float16", "original_dtype": "float32"}}, {"name": "block5_2/conv2/biases", "shape": [232], "dtype": "float32", "quantization": {"dtype": "float16", "original_dtype": "float32"}}, {"name": "ConstantFolding/block5_1/se/sigmoid_recip", "shape": [], "dtype": "float32", "quantization": {"dtype": "float16", "original_dtype": "float32"}}, {"name": "block5_1/se/pool/reduction_indices", "shape": [2], "dtype": "int32"}, {"name": "block5_1/se/conv0/weights", "shape": [1, 1, 816, 204], "dtype": "float32", "quantization": {"dtype": "float16", "original_dtype": "float32"}}, {"name": "block5_1/se/conv0/biases", "shape": [204], "dtype": "float32", "quantization": {"dtype": "float16", "original_dtype": "float32"}}, {"name": "block5_1/se/conv1/weights", "shape": [1, 1, 204, 816], "dtype": "float32", "quantization": {"dtype": "float16", "original_dtype": "float32"}}, {"name": "block5_1/se/conv1/biases", "shape": [816], "dtype": "float32", "quantization": {"dtype": "float16", "original_dtype": "float32"}}, {"name": "block5_1/conv0/weights", "shape": [1, 1, 232, 816], "dtype": "float32", "quantization": {"dtype": "float16", "original_dtype": "float32"}}, {"name": "block5_1/conv0/biases", "shape": [816], "dtype": "float32", "quantization": {"dtype": "float16", "original_dtype": "float32"}}, {"name": "block5_1/conv1/weights", "shape": [5, 5, 816, 1], "dtype": "float32", "quantization": {"dtype": "float16", "original_dtype": "float32"}}, {"name": "block5_1/conv1/biases", "shape": [816], "dtype": "float32", "quantization": {"dtype": "float16", "original_dtype": "float32"}}, {"name": "block5_1/conv2/weights", "shape": [1, 1, 816, 232], "dtype": "float32", "quantization": {"dtype": "float16", "original_dtype": "float32"}}, {"name": "block5_1/conv2/biases", "shape": [232], "dtype": "float32", "quantization": {"dtype": "float16", "original_dtype": "float32"}}, {"name": "ConstantFolding/block5_0/se/sigmoid_recip", "shape": [], "dtype": "float32", "quantization": {"dtype": "float16", "original_dtype": "float32"}}, {"name": "block5_0/se/pool/reduction_indices", "shape": [2], "dtype": "int32"}, {"name": "block5_0/se/conv0/weights", "shape": [1, 1, 816, 204], "dtype": "float32", "quantization": {"dtype": "float16", "original_dtype": "float32"}}, {"name": "block5_0/se/conv0/biases", "shape": [204], "dtype": "float32", "quantization": {"dtype": "float16", "original_dtype": "float32"}}, {"name": "block5_0/se/conv1/weights", "shape": [1, 1, 204, 816], "dtype": "float32", "quantization": {"dtype": "float16", "original_dtype": "float32"}}, {"name": "block5_0/se/conv1/biases", "shape": [816], "dtype": "float32", "quantization": {"dtype": "float16", "original_dtype": "float32"}}, {"name": "ConstantFolding/block4_4/se/sigmoid_recip", "shape": [], "dtype": "float32", "quantization": {"dtype": "float16", "original_dtype": "float32"}}, {"name": "block4_4/se/pool/reduction_indices", "shape": [2], "dtype": "int32"}, {"name": "block4_4/se/conv0/weights", "shape": [1, 1, 576, 144], "dtype": "float32", "quantization": {"dtype": "float16", "original_dtype": "float32"}}, {"name": "block4_4/se/conv0/biases", "shape": [144], "dtype": "float32", "quantization": {"dtype": "float16", "original_dtype": "float32"}}, {"name": "block4_4/se/conv1/weights", "shape": [1, 1, 144, 576], "dtype": "float32", "quantization": {"dtype": "float16", "original_dtype": "float32"}}, {"name": "block4_4/se/conv1/biases", "shape": [576], "dtype": "float32", "quantization": {"dtype": "float16", "original_dtype": "float32"}}, {"name": "block4_4/conv0/weights", "shape": [1, 1, 136, 576], "dtype": "float32", "quantization": {"dtype": "float16", "original_dtype": "float32"}}, {"name": "block4_4/conv0/biases", "shape": [576], "dtype": "float32", "quantization": {"dtype": "float16", "original_dtype": "float32"}}, {"name": "block4_4/conv1/weights", "shape": [5, 5, 576, 1], "dtype": "float32", "quantization": {"dtype": "float16", "original_dtype": "float32"}}, {"name": "block4_4/conv1/biases", "shape": [576], "dtype": "float32", "quantization": {"dtype": "float16", "original_dtype": "float32"}}, {"name": "block4_4/conv2/weights", "shape": [1, 1, 576, 136], "dtype": "float32", "quantization": {"dtype": "float16", "original_dtype": "float32"}}, {"name": "block4_4/conv2/biases", "shape": [136], "dtype": "float32", "quantization": {"dtype": "float16", "original_dtype": "float32"}}, {"name": "ConstantFolding/block4_3/se/sigmoid_recip", "shape": [], "dtype": "float32", "quantization": {"dtype": "float16", "original_dtype": "float32"}}, {"name": "block4_3/se/pool/reduction_indices", "shape": [2], "dtype": "int32"}, {"name": "block4_3/se/conv0/weights", "shape": [1, 1, 576, 144], "dtype": "float32", "quantization": {"dtype": "float16", "original_dtype": "float32"}}, {"name": "block4_3/se/conv0/biases", "shape": [144], "dtype": "float32", "quantization": {"dtype": "float16", "original_dtype": "float32"}}, {"name": "block4_3/se/conv1/weights", "shape": [1, 1, 144, 576], "dtype": "float32", "quantization": {"dtype": "float16", "original_dtype": "float32"}}, {"name": "block4_3/se/conv1/biases", "shape": [576], "dtype": "float32", "quantization": {"dtype": "float16", "original_dtype": "float32"}}, {"name": "block4_3/conv0/weights", "shape": [1, 1, 136, 576], "dtype": "float32", "quantization": {"dtype": "float16", "original_dtype": "float32"}}, {"name": "block4_3/conv0/biases", "shape": [576], "dtype": "float32", "quantization": {"dtype": "float16", "original_dtype": "float32"}}, {"name": "block4_3/conv1/weights", "shape": [5, 5, 576, 1], "dtype": "float32", "quantization": {"dtype": "float16", "original_dtype": "float32"}}, {"name": "block4_3/conv1/biases", "shape": [576], "dtype": "float32", "quantization": {"dtype": "float16", "original_dtype": "float32"}}, {"name": "block4_3/conv2/weights", "shape": [1, 1, 576, 136], "dtype": "float32", "quantization": {"dtype": "float16", "original_dtype": "float32"}}, {"name": "block4_3/conv2/biases", "shape": [136], "dtype": "float32", "quantization": {"dtype": "float16", "original_dtype": "float32"}}, {"name": "ConstantFolding/block4_2/se/sigmoid_recip", "shape": [], "dtype": "float32", "quantization": {"dtype": "float16", "original_dtype": "float32"}}, {"name": "block4_2/se/pool/reduction_indices", "shape": [2], "dtype": "int32"}, {"name": "block4_2/se/conv0/weights", "shape": [1, 1, 576, 144], "dtype": "float32", "quantization": {"dtype": "float16", "original_dtype": "float32"}}, {"name": "block4_2/se/conv0/biases", "shape": [144], "dtype": "float32", "quantization": {"dtype": "float16", "original_dtype": "float32"}}, {"name": "block4_2/se/conv1/weights", "shape": [1, 1, 144, 576], "dtype": "float32", "quantization": {"dtype": "float16", "original_dtype": "float32"}}, {"name": "block4_2/se/conv1/biases", "shape": [576], "dtype": "float32", "quantization": {"dtype": "float16", "original_dtype": "float32"}}, {"name": "block4_2/conv0/weights", "shape": [1, 1, 136, 576], "dtype": "float32", "quantization": {"dtype": "float16", "original_dtype": "float32"}}, {"name": "block4_2/conv0/biases", "shape": [576], "dtype": "float32", "quantization": {"dtype": "float16", "original_dtype": "float32"}}, {"name": "block4_2/conv1/weights", "shape": [5, 5, 576, 1], "dtype": "float32", "quantization": {"dtype": "float16", "original_dtype": "float32"}}, {"name": "block4_2/conv1/biases", "shape": [576], "dtype": "float32", "quantization": {"dtype": "float16", "original_dtype": "float32"}}, {"name": "block4_2/conv2/weights", "shape": [1, 1, 576, 136], "dtype": "float32", "quantization": {"dtype": "float16", "original_dtype": "float32"}}, {"name": "block4_2/conv2/biases", "shape": [136], "dtype": "float32", "quantization": {"dtype": "float16", "original_dtype": "float32"}}, {"name": "ConstantFolding/block4_1/se/sigmoid_recip", "shape": [], "dtype": "float32", "quantization": {"dtype": "float16", "original_dtype": "float32"}}, {"name": "block4_1/se/pool/reduction_indices", "shape": [2], "dtype": "int32"}, {"name": "block4_1/se/conv0/weights", "shape": [1, 1, 576, 144], "dtype": "float32", "quantization": {"dtype": "float16", "original_dtype": "float32"}}, {"name": "block4_1/se/conv0/biases", "shape": [144], "dtype": "float32", "quantization": {"dtype": "float16", "original_dtype": "float32"}}, {"name": "block4_1/se/conv1/weights", "shape": [1, 1, 144, 576], "dtype": "float32", "quantization": {"dtype": "float16", "original_dtype": "float32"}}, {"name": "block4_1/se/conv1/biases", "shape": [576], "dtype": "float32", "quantization": {"dtype": "float16", "original_dtype": "float32"}}, {"name": "block4_1/conv0/weights", "shape": [1, 1, 136, 576], "dtype": "float32", "quantization": {"dtype": "float16", "original_dtype": "float32"}}, {"name": "block4_1/conv0/biases", "shape": [576], "dtype": "float32", "quantization": {"dtype": "float16", "original_dtype": "float32"}}, {"name": "block4_1/conv1/weights", "shape": [5, 5, 576, 1], "dtype": "float32", "quantization": {"dtype": "float16", "original_dtype": "float32"}}, {"name": "block4_1/conv1/biases", "shape": [576], "dtype": "float32", "quantization": {"dtype": "float16", "original_dtype": "float32"}}, {"name": "block4_1/conv2/weights", "shape": [1, 1, 576, 136], "dtype": "float32", "quantization": {"dtype": "float16", "original_dtype": "float32"}}, {"name": "block4_1/conv2/biases", "shape": [136], "dtype": "float32", "quantization": {"dtype": "float16", "original_dtype": "float32"}}, {"name": "ConstantFolding/block4_0/se/sigmoid_recip", "shape": [], "dtype": "float32", "quantization": {"dtype": "float16", "original_dtype": "float32"}}, {"name": "block4_0/se/pool/reduction_indices", "shape": [2], "dtype": "int32"}, {"name": "block4_0/se/conv0/weights", "shape": [1, 1, 576, 144], "dtype": "float32", "quantization": {"dtype": "float16", "original_dtype": "float32"}}, {"name": "block4_0/se/conv0/biases", "shape": [144], "dtype": "float32", "quantization": {"dtype": "float16", "original_dtype": "float32"}}, {"name": "block4_0/se/conv1/weights", "shape": [1, 1, 144, 576], "dtype": "float32", "quantization": {"dtype": "float16", "original_dtype": "float32"}}, {"name": "block4_0/se/conv1/biases", "shape": [576], "dtype": "float32", "quantization": {"dtype": "float16", "original_dtype": "float32"}}, {"name": "ConstantFolding/block3_4/se/sigmoid_recip", "shape": [], "dtype": "float32", "quantization": {"dtype": "float16", "original_dtype": "float32"}}, {"name": "block3_4/se/pool/reduction_indices", "shape": [2], "dtype": "int32"}, {"name": "block3_4/se/conv0/weights", "shape": [1, 1, 288, 72], "dtype": "float32", "quantization": {"dtype": "float16", "original_dtype": "float32"}}, {"name": "block3_4/se/conv0/biases", "shape": [72], "dtype": "float32", "quantization": {"dtype": "float16", "original_dtype": "float32"}}, {"name": "block3_4/se/conv1/weights", "shape": [1, 1, 72, 288], "dtype": "float32", "quantization": {"dtype": "float16", "original_dtype": "float32"}}, {"name": "block3_4/se/conv1/biases", "shape": [288], "dtype": "float32", "quantization": {"dtype": "float16", "original_dtype": "float32"}}, {"name": "block3_4/conv0/weights", "shape": [1, 1, 96, 288], "dtype": "float32", "quantization": {"dtype": "float16", "original_dtype": "float32"}}, {"name": "block3_4/conv0/biases", "shape": [288], "dtype": "float32", "quantization": {"dtype": "float16", "original_dtype": "float32"}}, {"name": "block3_4/conv1/weights", "shape": [3, 3, 288, 1], "dtype": "float32", "quantization": {"dtype": "float16", "original_dtype": "float32"}}, {"name": "block3_4/conv1/biases", "shape": [288], "dtype": "float32", "quantization": {"dtype": "float16", "original_dtype": "float32"}}, {"name": "block3_4/conv2/weights", "shape": [1, 1, 288, 96], "dtype": "float32", "quantization": {"dtype": "float16", "original_dtype": "float32"}}, {"name": "block3_4/conv2/biases", "shape": [96], "dtype": "float32", "quantization": {"dtype": "float16", "original_dtype": "float32"}}, {"name": "ConstantFolding/block3_3/se/sigmoid_recip", "shape": [], "dtype": "float32", "quantization": {"dtype": "float16", "original_dtype": "float32"}}, {"name": "block3_3/se/pool/reduction_indices", "shape": [2], "dtype": "int32"}, {"name": "block3_3/se/conv0/weights", "shape": [1, 1, 288, 72], "dtype": "float32", "quantization": {"dtype": "float16", "original_dtype": "float32"}}, {"name": "block3_3/se/conv0/biases", "shape": [72], "dtype": "float32", "quantization": {"dtype": "float16", "original_dtype": "float32"}}, {"name": "block3_3/se/conv1/weights", "shape": [1, 1, 72, 288], "dtype": "float32", "quantization": {"dtype": "float16", "original_dtype": "float32"}}, {"name": "block3_3/se/conv1/biases", "shape": [288], "dtype": "float32", "quantization": {"dtype": "float16", "original_dtype": "float32"}}, {"name": "block3_3/conv0/weights", "shape": [1, 1, 96, 288], "dtype": "float32", "quantization": {"dtype": "float16", "original_dtype": "float32"}}, {"name": "block3_3/conv0/biases", "shape": [288], "dtype": "float32", "quantization": {"dtype": "float16", "original_dtype": "float32"}}, {"name": "block3_3/conv1/weights", "shape": [3, 3, 288, 1], "dtype": "float32", "quantization": {"dtype": "float16", "original_dtype": "float32"}}, {"name": "block3_3/conv1/biases", "shape": [288], "dtype": "float32", "quantization": {"dtype": "float16", "original_dtype": "float32"}}, {"name": "block3_3/conv2/weights", "shape": [1, 1, 288, 96], "dtype": "float32", "quantization": {"dtype": "float16", "original_dtype": "float32"}}, {"name": "block3_3/conv2/biases", "shape": [96], "dtype": "float32", "quantization": {"dtype": "float16", "original_dtype": "float32"}}, {"name": "ConstantFolding/block3_2/se/sigmoid_recip", "shape": [], "dtype": "float32", "quantization": {"dtype": "float16", "original_dtype": "float32"}}, {"name": "block3_2/se/pool/reduction_indices", "shape": [2], "dtype": "int32"}, {"name": "block3_2/se/conv0/weights", "shape": [1, 1, 288, 72], "dtype": "float32", "quantization": {"dtype": "float16", "original_dtype": "float32"}}, {"name": "block3_2/se/conv0/biases", "shape": [72], "dtype": "float32", "quantization": {"dtype": "float16", "original_dtype": "float32"}}, {"name": "block3_2/se/conv1/weights", "shape": [1, 1, 72, 288], "dtype": "float32", "quantization": {"dtype": "float16", "original_dtype": "float32"}}, {"name": "block3_2/se/conv1/biases", "shape": [288], "dtype": "float32", "quantization": {"dtype": "float16", "original_dtype": "float32"}}, {"name": "block3_2/conv0/weights", "shape": [1, 1, 96, 288], "dtype": "float32", "quantization": {"dtype": "float16", "original_dtype": "float32"}}, {"name": "block3_2/conv0/biases", "shape": [288], "dtype": "float32", "quantization": {"dtype": "float16", "original_dtype": "float32"}}, {"name": "block3_2/conv1/weights", "shape": [3, 3, 288, 1], "dtype": "float32", "quantization": {"dtype": "float16", "original_dtype": "float32"}}, {"name": "block3_2/conv1/biases", "shape": [288], "dtype": "float32", "quantization": {"dtype": "float16", "original_dtype": "float32"}}, {"name": "block3_2/conv2/weights", "shape": [1, 1, 288, 96], "dtype": "float32", "quantization": {"dtype": "float16", "original_dtype": "float32"}}, {"name": "block3_2/conv2/biases", "shape": [96], "dtype": "float32", "quantization": {"dtype": "float16", "original_dtype": "float32"}}, {"name": "ConstantFolding/block3_1/se/sigmoid_recip", "shape": [], "dtype": "float32", "quantization": {"dtype": "float16", "original_dtype": "float32"}}, {"name": "block3_1/se/pool/reduction_indices", "shape": [2], "dtype": "int32"}, {"name": "block3_1/se/conv0/weights", "shape": [1, 1, 288, 72], "dtype": "float32", "quantization": {"dtype": "float16", "original_dtype": "float32"}}, {"name": "block3_1/se/conv0/biases", "shape": [72], "dtype": "float32", "quantization": {"dtype": "float16", "original_dtype": "float32"}}, {"name": "block3_1/se/conv1/weights", "shape": [1, 1, 72, 288], "dtype": "float32", "quantization": {"dtype": "float16", "original_dtype": "float32"}}, {"name": "block3_1/se/conv1/biases", "shape": [288], "dtype": "float32", "quantization": {"dtype": "float16", "original_dtype": "float32"}}, {"name": "block3_1/conv0/weights", "shape": [1, 1, 96, 288], "dtype": "float32", "quantization": {"dtype": "float16", "original_dtype": "float32"}}, {"name": "block3_1/conv0/biases", "shape": [288], "dtype": "float32", "quantization": {"dtype": "float16", "original_dtype": "float32"}}, {"name": "block3_1/conv1/weights", "shape": [3, 3, 288, 1], "dtype": "float32", "quantization": {"dtype": "float16", "original_dtype": "float32"}}, {"name": "block3_1/conv1/biases", "shape": [288], "dtype": "float32", "quantization": {"dtype": "float16", "original_dtype": "float32"}}, {"name": "block3_1/conv2/weights", "shape": [1, 1, 288, 96], "dtype": "float32", "quantization": {"dtype": "float16", "original_dtype": "float32"}}, {"name": "block3_1/conv2/biases", "shape": [96], "dtype": "float32", "quantization": {"dtype": "float16", "original_dtype": "float32"}}, {"name": "ConstantFolding/block3_0/se/sigmoid_recip", "shape": [], "dtype": "float32", "quantization": {"dtype": "float16", "original_dtype": "float32"}}, {"name": "block3_0/se/pool/reduction_indices", "shape": [2], "dtype": "int32"}, {"name": "block3_0/se/conv0/weights", "shape": [1, 1, 288, 72], "dtype": "float32", "quantization": {"dtype": "float16", "original_dtype": "float32"}}, {"name": "block3_0/se/conv0/biases", "shape": [72], "dtype": "float32", "quantization": {"dtype": "float16", "original_dtype": "float32"}}, {"name": "block3_0/se/conv1/weights", "shape": [1, 1, 72, 288], "dtype": "float32", "quantization": {"dtype": "float16", "original_dtype": "float32"}}, {"name": "block3_0/se/conv1/biases", "shape": [288], "dtype": "float32", "quantization": {"dtype": "float16", "original_dtype": "float32"}}, {"name": "ConstantFolding/block2_2/se/sigmoid_recip", "shape": [], "dtype": "float32", "quantization": {"dtype": "float16", "original_dtype": "float32"}}, {"name": "block2_2/se/pool/reduction_indices", "shape": [2], "dtype": "int32"}, {"name": "block2_2/se/conv0/weights", "shape": [1, 1, 192, 48], "dtype": "float32", "quantization": {"dtype": "float16", "original_dtype": "float32"}}, {"name": "block2_2/se/conv0/biases", "shape": [48], "dtype": "float32", "quantization": {"dtype": "float16", "original_dtype": "float32"}}, {"name": "block2_2/se/conv1/weights", "shape": [1, 1, 48, 192], "dtype": "float32", "quantization": {"dtype": "float16", "original_dtype": "float32"}}, {"name": "block2_2/se/conv1/biases", "shape": [192], "dtype": "float32", "quantization": {"dtype": "float16", "original_dtype": "float32"}}, {"name": "block2_2/conv0/weights", "shape": [1, 1, 48, 192], "dtype": "float32", "quantization": {"dtype": "float16", "original_dtype": "float32"}}, {"name": "block2_2/conv0/biases", "shape": [192], "dtype": "float32", "quantization": {"dtype": "float16", "original_dtype": "float32"}}, {"name": "block2_2/conv1/weights", "shape": [5, 5, 192, 1], "dtype": "float32", "quantization": {"dtype": "float16", "original_dtype": "float32"}}, {"name": "block2_2/conv1/biases", "shape": [192], "dtype": "float32", "quantization": {"dtype": "float16", "original_dtype": "float32"}}, {"name": "block2_2/conv2/weights", "shape": [1, 1, 192, 48], "dtype": "float32", "quantization": {"dtype": "float16", "original_dtype": "float32"}}, {"name": "block2_2/conv2/biases", "shape": [48], "dtype": "float32", "quantization": {"dtype": "float16", "original_dtype": "float32"}}, {"name": "ConstantFolding/block2_1/se/sigmoid_recip", "shape": [], "dtype": "float32", "quantization": {"dtype": "float16", "original_dtype": "float32"}}, {"name": "block2_1/se/pool/reduction_indices", "shape": [2], "dtype": "int32"}, {"name": "block2_1/se/conv0/weights", "shape": [1, 1, 192, 48], "dtype": "float32", "quantization": {"dtype": "float16", "original_dtype": "float32"}}, {"name": "block2_1/se/conv0/biases", "shape": [48], "dtype": "float32", "quantization": {"dtype": "float16", "original_dtype": "float32"}}, {"name": "block2_1/se/conv1/weights", "shape": [1, 1, 48, 192], "dtype": "float32", "quantization": {"dtype": "float16", "original_dtype": "float32"}}, {"name": "block2_1/se/conv1/biases", "shape": [192], "dtype": "float32", "quantization": {"dtype": "float16", "original_dtype": "float32"}}, {"name": "block2_1/conv0/weights", "shape": [1, 1, 48, 192], "dtype": "float32", "quantization": {"dtype": "float16", "original_dtype": "float32"}}, {"name": "block2_1/conv0/biases", "shape": [192], "dtype": "float32", "quantization": {"dtype": "float16", "original_dtype": "float32"}}, {"name": "block2_1/conv1/weights", "shape": [5, 5, 192, 1], "dtype": "float32", "quantization": {"dtype": "float16", "original_dtype": "float32"}}, {"name": "block2_1/conv1/biases", "shape": [192], "dtype": "float32", "quantization": {"dtype": "float16", "original_dtype": "float32"}}, {"name": "block2_1/conv2/weights", "shape": [1, 1, 192, 48], "dtype": "float32", "quantization": {"dtype": "float16", "original_dtype": "float32"}}, {"name": "block2_1/conv2/biases", "shape": [48], "dtype": "float32", "quantization": {"dtype": "float16", "original_dtype": "float32"}}, {"name": "ConstantFolding/block2_0/se/sigmoid_recip", "shape": [], "dtype": "float32", "quantization": {"dtype": "float16", "original_dtype": "float32"}}, {"name": "block2_0/se/pool/reduction_indices", "shape": [2], "dtype": "int32"}, {"name": "block2_0/se/conv0/weights", "shape": [1, 1, 192, 48], "dtype": "float32", "quantization": {"dtype": "float16", "original_dtype": "float32"}}, {"name": "block2_0/se/conv0/biases", "shape": [48], "dtype": "float32", "quantization": {"dtype": "float16", "original_dtype": "float32"}}, {"name": "block2_0/se/conv1/weights", "shape": [1, 1, 48, 192], "dtype": "float32", "quantization": {"dtype": "float16", "original_dtype": "float32"}}, {"name": "block2_0/se/conv1/biases", "shape": [192], "dtype": "float32", "quantization": {"dtype": "float16", "original_dtype": "float32"}}, {"name": "ConstantFolding/block1_2/se/sigmoid_recip", "shape": [], "dtype": "float32", "quantization": {"dtype": "float16", "original_dtype": "float32"}}, {"name": "block1_2/se/pool/reduction_indices", "shape": [2], "dtype": "int32"}, {"name": "block1_2/se/conv0/weights", "shape": [1, 1, 96, 24], "dtype": "float32", "quantization": {"dtype": "float16", "original_dtype": "float32"}}, {"name": "block1_2/se/conv0/biases", "shape": [24], "dtype": "float32", "quantization": {"dtype": "float16", "original_dtype": "float32"}}, {"name": "block1_2/se/conv1/weights", "shape": [1, 1, 24, 96], "dtype": "float32", "quantization": {"dtype": "float16", "original_dtype": "float32"}}, {"name": "block1_2/se/conv1/biases", "shape": [96], "dtype": "float32", "quantization": {"dtype": "float16", "original_dtype": "float32"}}, {"name": "block1_2/conv0/weights", "shape": [1, 1, 32, 96], "dtype": "float32", "quantization": {"dtype": "float16", "original_dtype": "float32"}}, {"name": "block1_2/conv0/biases", "shape": [96], "dtype": "float32", "quantization": {"dtype": "float16", "original_dtype": "float32"}}, {"name": "block1_2/conv1/weights", "shape": [3, 3, 96, 1], "dtype": "float32", "quantization": {"dtype": "float16", "original_dtype": "float32"}}, {"name": "block1_2/conv1/biases", "shape": [96], "dtype": "float32", "quantization": {"dtype": "float16", "original_dtype": "float32"}}, {"name": "block1_2/conv2/weights", "shape": [1, 1, 96, 32], "dtype": "float32", "quantization": {"dtype": "float16", "original_dtype": "float32"}}, {"name": "block1_2/conv2/biases", "shape": [32], "dtype": "float32", "quantization": {"dtype": "float16", "original_dtype": "float32"}}, {"name": "ConstantFolding/block1_1/se/sigmoid_recip", "shape": [], "dtype": "float32", "quantization": {"dtype": "float16", "original_dtype": "float32"}}, {"name": "block1_1/se/pool/reduction_indices", "shape": [2], "dtype": "int32"}, {"name": "block1_1/se/conv0/weights", "shape": [1, 1, 96, 24], "dtype": "float32", "quantization": {"dtype": "float16", "original_dtype": "float32"}}, {"name": "block1_1/se/conv0/biases", "shape": [24], "dtype": "float32", "quantization": {"dtype": "float16", "original_dtype": "float32"}}, {"name": "block1_1/se/conv1/weights", "shape": [1, 1, 24, 96], "dtype": "float32", "quantization": {"dtype": "float16", "original_dtype": "float32"}}, {"name": "block1_1/se/conv1/biases", "shape": [96], "dtype": "float32", "quantization": {"dtype": "float16", "original_dtype": "float32"}}, {"name": "block1_1/conv0/weights", "shape": [1, 1, 32, 96], "dtype": "float32", "quantization": {"dtype": "float16", "original_dtype": "float32"}}, {"name": "block1_1/conv0/biases", "shape": [96], "dtype": "float32", "quantization": {"dtype": "float16", "original_dtype": "float32"}}, {"name": "block1_1/conv1/weights", "shape": [3, 3, 96, 1], "dtype": "float32", "quantization": {"dtype": "float16", "original_dtype": "float32"}}, {"name": "block1_1/conv1/biases", "shape": [96], "dtype": "float32", "quantization": {"dtype": "float16", "original_dtype": "float32"}}, {"name": "block1_1/conv2/weights", "shape": [1, 1, 96, 32], "dtype": "float32", "quantization": {"dtype": "float16", "original_dtype": "float32"}}, {"name": "block1_1/conv2/biases", "shape": [32], "dtype": "float32", "quantization": {"dtype": "float16", "original_dtype": "float32"}}, {"name": "ConstantFolding/block1_0/se/sigmoid_recip", "shape": [], "dtype": "float32", "quantization": {"dtype": "float16", "original_dtype": "float32"}}, {"name": "block1_0/se/pool/reduction_indices", "shape": [2], "dtype": "int32"}, {"name": "block1_0/se/conv0/weights", "shape": [1, 1, 96, 24], "dtype": "float32", "quantization": {"dtype": "float16", "original_dtype": "float32"}}, {"name": "block1_0/se/conv0/biases", "shape": [24], "dtype": "float32", "quantization": {"dtype": "float16", "original_dtype": "float32"}}, {"name": "block1_0/se/conv1/weights", "shape": [1, 1, 24, 96], "dtype": "float32", "quantization": {"dtype": "float16", "original_dtype": "float32"}}, {"name": "block1_0/se/conv1/biases", "shape": [96], "dtype": "float32", "quantization": {"dtype": "float16", "original_dtype": "float32"}}, {"name": "ConstantFolding/block0_1/se/sigmoid_recip", "shape": [], "dtype": "float32", "quantization": {"dtype": "float16", "original_dtype": "float32"}}, {"name": "block0_1/se/pool/reduction_indices", "shape": [2], "dtype": "int32"}, {"name": "block0_1/se/conv0/weights", "shape": [1, 1, 40, 10], "dtype": "float32", "quantization": {"dtype": "float16", "original_dtype": "float32"}}, {"name": "block0_1/se/conv0/biases", "shape": [10], "dtype": "float32", "quantization": {"dtype": "float16", "original_dtype": "float32"}}, {"name": "block0_1/se/conv1/weights", "shape": [1, 1, 10, 40], "dtype": "float32", "quantization": {"dtype": "float16", "original_dtype": "float32"}}, {"name": "block0_1/se/conv1/biases", "shape": [40], "dtype": "float32", "quantization": {"dtype": "float16", "original_dtype": "float32"}}, {"name": "block0_1/conv0/weights", "shape": [1, 1, 16, 40], "dtype": "float32", "quantization": {"dtype": "float16", "original_dtype": "float32"}}, {"name": "block0_1/conv0/biases", "shape": [40], "dtype": "float32", "quantization": {"dtype": "float16", "original_dtype": "float32"}}, {"name": "block0_1/conv1/weights", "shape": [3, 3, 40, 1], "dtype": "float32", "quantization": {"dtype": "float16", "original_dtype": "float32"}}, {"name": "block0_1/conv1/biases", "shape": [40], "dtype": "float32", "quantization": {"dtype": "float16", "original_dtype": "float32"}}, {"name": "block0_1/conv2/weights", "shape": [1, 1, 40, 16], "dtype": "float32", "quantization": {"dtype": "float16", "original_dtype": "float32"}}, {"name": "block0_1/conv2/biases", "shape": [16], "dtype": "float32", "quantization": {"dtype": "float16", "original_dtype": "float32"}}, {"name": "ConstantFolding/block0_0/se/sigmoid_recip", "shape": [], "dtype": "float32", "quantization": {"dtype": "float16", "original_dtype": "float32"}}, {"name": "block0_0/se/pool/reduction_indices", "shape": [2], "dtype": "int32"}, {"name": "block0_0/se/conv0/weights", "shape": [1, 1, 40, 10], "dtype": "float32", "quantization": {"dtype": "float16", "original_dtype": "float32"}}, {"name": "block0_0/se/conv0/biases", "shape": [10], "dtype": "float32", "quantization": {"dtype": "float16", "original_dtype": "float32"}}, {"name": "block0_0/se/conv1/weights", "shape": [1, 1, 10, 40], "dtype": "float32", "quantization": {"dtype": "float16", "original_dtype": "float32"}}, {"name": "block0_0/se/conv1/biases", "shape": [40], "dtype": "float32", "quantization": {"dtype": "float16", "original_dtype": "float32"}}, {"name": "scalar_3", "shape": [], "dtype": "float32", "quantization": {"dtype": "float16", "original_dtype": "float32"}}, {"name": "mean_value", "shape": [1], "dtype": "float32", "quantization": {"dtype": "float16", "original_dtype": "float32"}}, {"name": "conv0/weights", "shape": [3, 3, 3, 40], "dtype": "float32", "quantization": {"dtype": "float16", "original_dtype": "float32"}}, {"name": "conv0/biases", "shape": [40], "dtype": "float32", "quantization": {"dtype": "float16", "original_dtype": "float32"}}, {"name": "block0_0/conv1/weights", "shape": [3, 3, 40, 1], "dtype": "float32", "quantization": {"dtype": "float16", "original_dtype": "float32"}}, {"name": "block0_0/conv1/biases", "shape": [40], "dtype": "float32", "quantization": {"dtype": "float16", "original_dtype": "float32"}}, {"name": "block0_0/conv2/weights", "shape": [1, 1, 40, 16], "dtype": "float32", "quantization": {"dtype": "float16", "original_dtype": "float32"}}, {"name": "block0_0/conv2/biases", "shape": [16], "dtype": "float32", "quantization": {"dtype": "float16", "original_dtype": "float32"}}, {"name": "block1_0/conv0/weights", "shape": [1, 1, 16, 96], "dtype": "float32", "quantization": {"dtype": "float16", "original_dtype": "float32"}}, {"name": "block1_0/conv0/biases", "shape": [96], "dtype": "float32", "quantization": {"dtype": "float16", "original_dtype": "float32"}}, {"name": "block1_0/conv1/weights", "shape": [3, 3, 96, 1], "dtype": "float32", "quantization": {"dtype": "float16", "original_dtype": "float32"}}, {"name": "block1_0/conv1/biases", "shape": [96], "dtype": "float32", "quantization": {"dtype": "float16", "original_dtype": "float32"}}, {"name": "block1_0/conv2/weights", "shape": [1, 1, 96, 32], "dtype": "float32", "quantization": {"dtype": "float16", "original_dtype": "float32"}}, {"name": "block1_0/conv2/biases", "shape": [32], "dtype": "float32", "quantization": {"dtype": "float16", "original_dtype": "float32"}}, {"name": "block2_0/conv0/weights", "shape": [1, 1, 32, 192], "dtype": "float32", "quantization": {"dtype": "float16", "original_dtype": "float32"}}, {"name": "block2_0/conv0/biases", "shape": [192], "dtype": "float32", "quantization": {"dtype": "float16", "original_dtype": "float32"}}, {"name": "block2_0/conv1/weights", "shape": [5, 5, 192, 1], "dtype": "float32", "quantization": {"dtype": "float16", "original_dtype": "float32"}}, {"name": "block2_0/conv1/biases", "shape": [192], "dtype": "float32", "quantization": {"dtype": "float16", "original_dtype": "float32"}}, {"name": "block2_0/conv2/weights", "shape": [1, 1, 192, 48], "dtype": "float32", "quantization": {"dtype": "float16", "original_dtype": "float32"}}, {"name": "block2_0/conv2/biases", "shape": [48], "dtype": "float32", "quantization": {"dtype": "float16", "original_dtype": "float32"}}, {"name": "block3_0/conv0/weights", "shape": [1, 1, 48, 288], "dtype": "float32", "quantization": {"dtype": "float16", "original_dtype": "float32"}}, {"name": "block3_0/conv0/biases", "shape": [288], "dtype": "float32", "quantization": {"dtype": "float16", "original_dtype": "float32"}}, {"name": "block3_0/conv1/weights", "shape": [3, 3, 288, 1], "dtype": "float32", "quantization": {"dtype": "float16", "original_dtype": "float32"}}, {"name": "block3_0/conv1/biases", "shape": [288], "dtype": "float32", "quantization": {"dtype": "float16", "original_dtype": "float32"}}, {"name": "block3_0/conv2/weights", "shape": [1, 1, 288, 96], "dtype": "float32", "quantization": {"dtype": "float16", "original_dtype": "float32"}}, {"name": "block3_0/conv2/biases", "shape": [96], "dtype": "float32", "quantization": {"dtype": "float16", "original_dtype": "float32"}}, {"name": "block4_0/conv0/weights", "shape": [1, 1, 96, 576], "dtype": "float32", "quantization": {"dtype": "float16", "original_dtype": "float32"}}, {"name": "block4_0/conv0/biases", "shape": [576], "dtype": "float32", "quantization": {"dtype": "float16", "original_dtype": "float32"}}, {"name": "block4_0/conv1/weights", "shape": [5, 5, 576, 1], "dtype": "float32", "quantization": {"dtype": "float16", "original_dtype": "float32"}}, {"name": "block4_0/conv1/biases", "shape": [576], "dtype": "float32", "quantization": {"dtype": "float16", "original_dtype": "float32"}}, {"name": "block4_0/conv2/weights", "shape": [1, 1, 576, 136], "dtype": "float32", "quantization": {"dtype": "float16", "original_dtype": "float32"}}, {"name": "block4_0/conv2/biases", "shape": [136], "dtype": "float32", "quantization": {"dtype": "float16", "original_dtype": "float32"}}, {"name": "block5_0/conv0/weights", "shape": [1, 1, 136, 816], "dtype": "float32", "quantization": {"dtype": "float16", "original_dtype": "float32"}}, {"name": "block5_0/conv0/biases", "shape": [816], "dtype": "float32", "quantization": {"dtype": "float16", "original_dtype": "float32"}}, {"name": "Const_1", "shape": [4, 2], "dtype": "int32"}, {"name": "block5_0/conv1/weights", "shape": [5, 5, 816, 1], "dtype": "float32", "quantization": {"dtype": "float16", "original_dtype": "float32"}}, {"name": "block5_0/conv1/biases", "shape": [816], "dtype": "float32", "quantization": {"dtype": "float16", "original_dtype": "float32"}}, {"name": "block5_0/conv2/weights", "shape": [1, 1, 816, 232], "dtype": "float32", "quantization": {"dtype": "float16", "original_dtype": "float32"}}, {"name": "block5_0/conv2/biases", "shape": [232], "dtype": "float32", "quantization": {"dtype": "float16", "original_dtype": "float32"}}, {"name": "block6_0/conv0/weights", "shape": [1, 1, 232, 1392], "dtype": "float32", "quantization": {"dtype": "float16", "original_dtype": "float32"}}, {"name": "block6_0/conv0/biases", "shape": [1392], "dtype": "float32", "quantization": {"dtype": "float16", "original_dtype": "float32"}}, {"name": "Const", "shape": [4, 2], "dtype": "int32"}, {"name": "conv1/weights", "shape": [1, 1, 384, 1536], "dtype": "float32", "quantization": {"dtype": "float16", "original_dtype": "float32"}}, {"name": "classifier/biases", "shape": [2], "dtype": "float32", "quantization": {"dtype": "float16", "original_dtype": "float32"}}, {"name": "conv1/biases", "shape": [1536], "dtype": "float32", "quantization": {"dtype": "float16", "original_dtype": "float32"}}, {"name": "block6_0/conv2/weights", "shape": [1, 1, 1392, 384], "dtype": "float32", "quantization": {"dtype": "float16", "original_dtype": "float32"}}, {"name": "block6_0/conv2/biases", "shape": [384], "dtype": "float32", "quantization": {"dtype": "float16", "original_dtype": "float32"}}, {"name": "pool/reduction_indices", "shape": [2], "dtype": "int32"}, {"name": "classifier/weights", "shape": [1536, 2], "dtype": "float32", "quantization": {"dtype": "float16", "original_dtype": "float32"}}, {"name": "block6_0/conv1/weights", "shape": [3, 3, 1392, 1], "dtype": "float32", "quantization": {"dtype": "float16", "original_dtype": "float32"}}, {"name": "block6_0/conv1/biases", "shape": [1392], "dtype": "float32", "quantization": {"dtype": "float16", "original_dtype": "float32"}}]}]}